checkpoints/best_model.pkl (torch_old, 248494 bytes, 10 tensors)

c1.weight f4 [6, 1, 5, 5]
00000000: 6ec1 66be 8844 69be 9b45 e0be a0f9 a8be
00000010: 68ea c93e f7d2 2dbf 568c 4ebf fb49 b8bf
00000020: ad4f 86bf 93e2 a13e 8cf5 b9be 3c25 93bf
00000030: 87c2 8abf 3963 0dbf 99a1 4c3f dd33 6e3d
00000040: fefa d1be e655 a3be 7155 b83e cc0a 973f
00000050: 69ba 053f 0546 373f 7030 3a3f f383 7b3f
00000060: 32b1 8a3f bff2 c8bf 9a58 84bf 8db0 f4bd
00000070: 9d27 a0be 478f 02bf 5618 30be 5282 453f
00000080: 1ed1 453f d14b a33f c7e8 6f3f a77d a13e
00000090: b9d6 993f 7068 c63f 3d54 c93f f14d 963f
000000a0: 919d 5abe 7c62 6d3f 9f75 9b3f cccb 603f
000000b0: 617f b83d a006 94bf 5ea3 28be fa31 36be
000000c0: 2057 d0be 1c73 acbf 4f5c 0d3f 48cf 6a3f
000000d0: 5863 593f 47bb 783f bfc1 7f3f ca1d 0a3f
000000e0: b06e 8f3e d5b5 9abe f07d 02bf 12d0 42be
000000f0: 98f5 8d3c 1803 3cbf cefb c0bf d902 a5bf
00000100: 6af6 17bf 35a4 b53e af2e 6ebf 8e1b d7bf
00000110: 574b a4bf d0cc 21bf a04a 863f 2979 0d3b
00000120: 4034 21be 1a05 163e 570c 0c3f bf29 21be
00000130: 1a00 023d b339 793e 9f10 fc3e 1372 f53e
00000140: 7fdc 403f 6f10 653f b0ce 463f 1276 9e3f
00000150: 6619 833f b12f 763f 30ea 8c3f 6f4b 733f
00000160: 6099 883f 6a24 503f f005 253f ebe9 823f
00000170: 358d 813f 1e3e bf3e eb5a bb3d f1d1 1d3c
00000180: dc6b c73e 9b48 d93c 65c6 40be faa5 54bf
00000190: c199 3f3d 0e8c 1e3f bafe 9d3f f70f a63f
000001a0: e662 203f e3b7 1b3e 442d 9a3f fd59 d33f
000001b0: 8315 9b3f ecd4 fc3e 2ffd 163e ff1c 503f
000001c0: 1689 3b3f d96f 4e3e 6979 d6be 4c30 c9be
000001d0: e6eb ebbd 0950 30bf 80a5 64bf 0bd7 2dbf
000001e0: 0f77 a9bf aed3 bebf 1a99 abbf e386 3dbf
000001f0: 03f4 1bbf c6fc 643f 4efa 983f fb11 673f
00000200: 8542 583f 2f47 723f e435 f33e 0e04 c93e
00000210: 418a 66be b51d b63d 9031 0cbc e87d 423e
00000220: 58f1 30bf 9191 83bf 7381 94bf ab5d 06bf
00000230: 58be 673d 4a6f 7cbf a3ae aabf 02e8 99bf
00000240: 7fe2 13bf fec9 5f3e 9b2d 1fbf 9cc5 1abf
00000250: d05e 8cbe 99da cc3e
-0.22534725 -0.22780049 -0.43803105 -0.3300295 0.3943665 -0.6790003 -0.80682886 -1.4397577
-1.0493065 0.31618175 -0.3632015 -1.1495738 -1.0840615 -0.55229527 0.7993408 0.05815493
-0.41011804 -0.31901473 0.36002687 1.180017 0.52237564 0.71591216 0.7273016 0.98248214
1.0835326 -1.569908 -1.0339539 -0.11947737 -0.31280223 -0.50999874 -0.17196783 0.7715198
0.7727221 1.2757512 0.93714565 0.31541178 1.2018653 1.5500622 1.5728832 1.1742536
-0.2134917 0.927284 1.214527 0.8781097 0.090086706 -1.1564522 -0.1646857 -0.17792502
-0.4069147 -1.3472629 0.55218977 0.91722536 0.8491721 0.9716076 0.9990501 0.53951705
0.28014135 -0.30216852 -0.50973415 -0.19024685 0.017329022 -0.7344222 -1.5076845 -1.2891494
-0.59360373 0.35476843 -0.93039984 -1.6805284 -1.2835492 -0.63203144 1.0491524 0.002158711
-0.15742588 0.14650384 0.5470633 -0.15738581 0.031738378 0.24338417 0.4923143 0.47938594
0.7533645 0.894782 0.7765913 1.2379782 1.0242126 0.9616652 1.1008968 0.9503698
1.0671806 0.81305563 0.64462185 1.0227636 1.0121218 0.3735208 0.091482006 0.009632573
0.38949478 0.026523879 -0.18825682 -0.8306576 0.04677749 0.61932456 1.2343361 1.2973622
0.6265091 0.15206866 1.2045064 1.6511837 1.211594 0.49381196 0.1474502 0.81294245
0.7325605 0.20159854 -0.41889504 -0.3929466 -0.115196034 -0.68872124 -0.8931503 -0.67906255
-1.3239459 -1.490835 -1.3406098 -0.74033946 -0.6091921 0.894482 1.1951387 0.9026181
0.844765 0.9463987 0.47502053 0.39260906 -0.22513677 0.08892385 -0.0085567385 0.18993342
-0.6911826 -1.0278798 -1.1602005 -0.52486676 0.05657801 -0.98607314 -1.3334545 -1.2023928
-0.5776748 0.21854398 -0.62178963 -0.6045778 -0.27416086 0.40010527

c1.bias f4 [6]
00000000: a3e6 f4bb 599b 9ebf 6dad 4b3f 7da9 aabf
00000010: 2917 02bf 1d06 f43e
-0.007473783 -1.2391158 0.795615 -1.3332974 -0.5081659 0.47660914

c3.weight f4 [16, 6, 5, 5]
00000000: 3360 8bbe d071 11be a34f 2a3e 3af6 0b3d
00000010: 3c2d c3bd 8d3e f7bd a255 133d f188 b73c
00000020: f830 fb3d 267e c73e a578 42be 67bf 0cbe
00000030: c4d3 883e 430e 083f 6db5 553d d57a 37be
00000040: 9c48 043c e3f1 1f3e ec5e 9fbe c5f3 40bf
00000050: 1e8d 88be 0c93 b9be eabb a4be 7581 adbe
00000060: a3c6 f3be 4548 683d b389 05be dbea e6bd
00000070: a17d b8bd 8d17 32bb a53a cdbd 68e0 69be
00000080: 80ac 8ebe 64d2 ddbe fd5b 72be 844e b13d
00000090: e739 58be bdbd d0be ecf6 8cbe 2bb2 9f3e
000000a0: 0bf0 27bd 706a 47be 462d 803d 1fc8 fb3e
000000b0: be1c 9b3e e04c ba3e 95c6 953e 807b d73e
000000c0: cbd5 413e 0931 9abe f256 58bd 4e87 2c3e
000000d0: c4f1 713e 868d f43d 819b 9c3d 5182 10bd
000000e0: 0d8d c83d 18f5 563e a878 bb3e 1de7 663c
000000f0: 01a2 2bbe 1c61 de3d ad70 163e b886 3dbd
00000100: b99f 0abf fd50 5fbe 67d3 cbbc 7dd0 e4be
00000110: e951 13bf b3b1 08be 1cb2 cdbe a081 a1be
00000120: e7fe 88be 37fc 83bd 1759 6b3c 78e9 6ebd
00000130: ca3a 81bd dc74 99bc 72b0 363d d349 143e
00000140: 2c23 353d d8dd 0cbe 0d1f 96bd 8dc6 44be
00000150: 3082 45be 3325 903a c4ab 34be 3dd8 8dbe
00000160: f68d 5abe 16a8 c23d 12ca bc3c b221 2abe
00000170: b14b f2bb 2242 873e 94fb 9a3e b4f3 ed3d
00000180: 4858 8c3e ee55 153e 935f 463e 5db4 f9bd
00000190: 77ef f7bb 9cb0 edbc 13c4 dcbc 592e 2e3d
000001a0: 073f 8b3e 64ef 383c 8ce9 61be 08e0 07be
000001b0: 19c4 93bd fbeb aabe d274 a6bc 9f50 3bbe
000001c0: 9eda a6be 2c6f 49bf c6b8 e6be 19d8 efbc
000001d0: 628b bfbe 355f d2be 3410 85bd b848 203f
000001e0: 3013 653e 6777 863e 75b5 9a3e 9ed2 d13e
000001f0: 07f0 ae3e 4005 8fbd 210e 0b3e cf48 d33d
00000200: b899 1a3e 30e0 563e fc1b 8cbd 0160 063e
00000210: aa38 cf3d fa04 813e 3ff5 cebd c719 04be
00000220: a63d 893d 334e 243d 3e93 3cbe ecc7 1bbf
00000230: 610d 29be ea4b cbbc ab89 b5be d93f bfbe
00000240: 7bc1 6d3c 2c36 9abe e42f a4be 3f52 75be
00000250: a51c cfbd 769d f83d 5df3 a5bd bc3a 04be
00000260: 4cec a1be c0de c5bd a5b5 bbbd b117 52bb
00000270: 5b5b 36bc cc61 9cbc 131d 7abe 29ac 90be
00000280: 8428 c63b 25dc 18be dd2c 32be a34a bcbd
00000290: 4e8c a03e 008e 823e 8084 6d3e 1f9d 0c3f
000002a0: cfa3 4a3f 181d f83e a3bc b53e 0a96 9c3e
000002b0: 35ff d33d 23e7 50be 0397 efbe cb3c 843c
000002c0: 97f1 6c3e 3ef5 16bd dedf cdbd b468 a03c
000002d0: 14fa f4bc 1218 433d 1b8d 113e 7969 8f3e
000002e0: 4dbe f43d 524c 7ebe 5040 bfbd 6e5a 93be
000002f0: b57e 43bf 5ee4 42bf 22af 4ebf d17c 56bf
00000300: 1085 59bf f129 1bbf ab33 3ebd 2a8e bcbe
00000310: d31a 8dbe 6293 2e3c c51a cd3e aa97 093e
00000320: ba90 41be 9e89 53be c499 8bbd dcaf 10be
00000330: 0f7a 5dbe e3ee 1fbe a9ec 9dbe ae89 4bbe
00000340: f0b5 91be 14cf 4fbd 2e43 fd3d ab71 483e
00000350: d3c5 f13e fced 643f bbfa 123f e69a c73e
00000360: 3145 123f ce62 fb3e a3c2 cabd fbb7 16bf
00000370: 0202 a33d 6c2f a339 85e9 63be cde4 e2be
00000380: ee98 a8bd 6c5a 12bd 48b4 1ebc a41c 3ebe
00000390: 8b0e b9bd 0747 d73d 81b2 87bd 2dfc 663c
000003a0: 2a30 033e 56d7 483e 5a1a fd3d a06a 89be
000003b0: b78a 1dbe abb6 51be 8d2b afbe 24d7 eebe
000003c0: 7315 36bf 28db 22bf 7b2f 34bf dea0 0fbf
000003d0: 97b0 99be 9fbb 08bf ca4d ccbe cc51 2cbe
000003e0: c52d 123e 5cc7 263e 5696 09be d8c4 e43d
000003f0: d84d 783e f8df 083e 535f 34bd 9e85 1fbe
-0.27221832 -0.14203572 0.16631941 0.034170367 -0.09530112 -0.120724775 0.035970338 0.022404166
0.122651994 0.3896343 -0.18991335 -0.13744889 0.26724064 0.5314676 0.052174974 -0.1791795
0.008073952 0.15619616 -0.31127107 -0.7537196 -0.26670164 -0.36245 -0.32174617 -0.3388783
-0.47612485 0.056709547 -0.1304081 -0.11275264 -0.09008337 -0.0027174682 -0.10020951 -0.2283951
-0.27865982 -0.43324578 -0.23667903 0.08657554 -0.21115838 -0.4076976 -0.27532136 0.3119062
-0.041000407 -0.19474196 0.06258635 0.49176118 0.30295366 0.36386776 0.2925307 0.4208641
0.18929212 -0.30115536 -0.052817293 0.1684849 0.23627383 0.11941056 0.076468475 -0.03528053
0.09792528 0.20991933 0.3661549 0.014093188 -0.16761018 0.10858366 0.1469142 -0.046271056
-0.5414997 -0.21808238 -0.024881078 -0.44690314 -0.5754686 -0.13349037 -0.4017495 -0.3154421
-0.26756975 -0.064445905 0.014364502 -0.058328122 -0.06310041 -0.01873248 0.044601865 0.14481287
0.044222996 -0.13756502 -0.07330141 -0.19216366 -0.19287944 0.0010997414 -0.17643648 -0.2770404
-0.21343216 0.09504716 0.023045573 -0.16614416 -0.007394277 0.26417643 0.30270064 0.11618748
0.27411103 0.14583561 0.19372396 -0.12192605 -0.007566388 -0.029014878 -0.026948964 0.04252467
0.27196524 0.011287544 -0.22061747 -0.13269055 -0.07215137 -0.33383164 -0.020319376 -0.18292473
-0.32588667 -0.7868526 -0.45062846 -0.029277848 -0.37411028 -0.41088262 -0.06497231 0.6261096
0.223706 0.26262972 0.30216566 0.40981 0.341675 -0.06983423 0.13579609 0.103166215
0.15097702 0.20983958 -0.06841275 0.1312256 0.1011823 0.2519911 -0.10105371 -0.12900458
0.06701212 0.04011364 -0.18415543 -0.6085193 -0.1650901 -0.024816472 -0.35456595 -0.373534
0.014511461 -0.30119455 -0.32067788 -0.23957156 -0.101128854 0.12139408 -0.081030585 -0.1291303
-0.31625593 -0.09661627 -0.09165505 -0.0032057578 -0.011130179 -0.019089602 -0.24425153 -0.28256348
0.0060473103 -0.14927728 -0.17399926 -0.09193923 0.31357044 0.25498962 0.23195076 0.5492725
0.791562 0.48459697 0.3549548 0.3058322 0.10351411 -0.20400672 -0.467949 0.01614227
0.23139034 -0.036854975 -0.10052465 0.019581176 -0.029904403 0.047630377 0.14213984 0.28010157
0.119503595 -0.24833801 -0.093384385 -0.2877993 -0.76365215 -0.7612971 -0.8073598 -0.83784205
-0.8496866 -0.6061087 -0.046435993 -0.36827213 -0.27559528 0.010655256 0.40059486 0.13436761
-0.18902865 -0.20657966 -0.06816438 -0.14129585 -0.21628593 -0.15618472 -0.3084462 -0.1987674
-0.2845912 -0.050734594 0.12366329 0.19574611 0.4722124 0.89425635 0.57413834 0.38985366
0.5713683 0.4909882 -0.09900405 -0.5887448 0.07959367 0.00031125115 -0.2225705 -0.44315186
-0.08232294 -0.035730764 -0.009686537 -0.18565613 -0.09035977 0.10511594 -0.06625844 0.014098209
0.12811342 0.19613394 0.12358542 -0.2683916 -0.15384947 -0.20479839 -0.34212914 -0.46648514
-0.7112648 -0.63615656 -0.7038495 -0.5610484 -0.3001754 -0.5341129 -0.39903098 -0.16828078
0.14275272 0.16286987 -0.13436255 0.111703575 0.24248445 0.13366687 -0.04403622 -0.15578315

c3.bias f4 [16]
00000000: 647f f1bd 4b47 febd d629 88be ea10 a4bc
00000010: d265 f83c 36c6 c3bd d127 32bc fb4e 7bbd
00000020: 3770 c3bd 9c02 c5bd af8c 03be 4e03 30be
00000030: bc96 11be d5c6 4abe 0b25 17be 34da 32bd
-0.11791876 -0.12415942 -0.26594418 -0.020027597 0.03032199 -0.0955929 -0.010873751 -0.06135462
-0.09542888 -0.09619638 -0.12846635 -0.1718876 -0.14217657 -0.19802411 -0.14760225 -0.043665126

c5.weight f4 [120, 16, 5, 5]
00000000: 4cd0 953d b1df 07bd d8a4 efbd 1286 0e3b
00000010: 0a67 a9bd 133c e9bb f69d 2bbd a6f3 c73d
00000020: 2627 b83c a114 84bd 29a1 84bd 5e40 e43d
00000030: 0b13 a63d de5d 7d3d b76a abbc 737a 233c
00000040: 58fa 7d3d 678f 683d a30b 1bbb 7a22 f4bb
00000050: 3ecc 573d 7d4d da3d efe4 ac3d 23f2 99bc
00000060: 70ce 0abc 2117 ed3d addc 5c3e d79a 733d
00000070: dcd2 313d 6474 923c 283f e3bd 8c4d 2d3d
00000080: 6784 45bd d8bd 49bd 2ea0 61bd 5525 ce3c
00000090: 4b62 da39 fff9 203d c685 73bd 0669 2fbd
000000a0: 0340 f33c 17a7 2e3d eee9 c0bd dcbb 683c
000000b0: ae5b b6bc fd0d ea3c e04d debd bd69 fcbd
000000c0: a929 eebd 5a99 63bc 7107 733d dcda a63d
000000d0: 1f10 5abb 3747 443d 66e9 afbd be51 9cbc
000000e0: ee2d 59bd a10a 183d 59c4 4a3e 8be7 ea3d
000000f0: 1197 85bd 23c2 8b3d 2ad3 473e 04c0 2d3e
00000100: 18e7 8e3d c959 633c 4e8d 1fbd 40ad babd
00000110: be8c ddbc b4a7 513d 51d7 96bd 0ee6 7fbd
00000120: 5922 3cbd e7c8 56bd 2092 ae3c 0854 e53d
00000130: c44b f83d 9a9e 483d 92fe 033e c362 a43c
00000140: 3000 993c 14ac 113e 5571 9c3d cc51 433a
00000150: 6bb4 dabd 9183 09be 3535 6fbd e3e7 423e
00000160: 7fe5 2a3e d2cd 833c 4a86 67bd c32f 5f3b
00000170: e459 a93d 952b bf3b 5c5f 88bd f645 903b
00000180: 9b01 f2bd ebc7 0ebb 1e26 a6ba 903e d9bc
00000190: a484 86bd 59fb 863d 5d96 893d cd8d 783c
000001a0: 19d7 1e3e 88a7 dd3d c1fb 443d c711 2a3d
000001b0: c53b 5b3e 14ce 3f3d 84ab 8abc a435 9e3b
000001c0: ff48 8abc a852 f13d a6d0 1c3e 92ba e53c
000001d0: b1eb 9c3c 87f7 7e3d 8615 f7bd 002d 11be
000001e0: 7526 97bd 38f4 c6bd 5e47 5ebd ba6d 0bbb
000001f0: 6f8f bdbd 2f5c a03b 101a 33bd a833 bcbd
00000200: 97f8 1ebe cd4d f83c dbac 63bd 98a8 98bd
00000210: 0d60 6ebd 0846 1abe 03c0 7bbd 1a83 0ebd
00000220: 3ba3 643d 1432 a3bd d6db 43bc 31bc f4bb
00000230: b04a 2e3d fc43 36bd 7061 2d3e a8c6 b3bd
00000240: 9447 81bd faef 853c cbf2 313c 87b0 2c3e
00000250: e465 123e 7870 963c 561f 0dbd 2efd fbbc
00000260: 7399 4a3d 9ce0 afbc bc11 37bd 8424 3abd
00000270: 29f4 06be eba4 c13d b7c8 98bc de71 803d
00000280: bd1a c9bd 9917 37be 507c 973d b8e2 3a3d
00000290: a336 aabd ee9d 19bd 12d3 033c db37 293d
000002a0: 3dae a5bc 25a1 683d a371 41bd 2475 72bd
000002b0: 0924 8c3c 6c19 7d3d 7945 2a3d 9197 de3a
000002c0: 5109 7abd 7767 10be 8266 e5bc 1a10 963c
000002d0: cc5d 02bb 7cfe 01bd d3cd c0bd 2e31 303e
000002e0: 2616 c13b 812d 12be 9e30 813c 6fb9 b1bc
000002f0: df31 05bd d952 b9bc beb9 f3bd 5e4a 8dbc
00000300: b0e3 02bd 30af 083c 055c 883d a6a7 ca3c
00000310: cc30 7bbc 99b8 5d3d 361b abbc 7237 8b3d
00000320: 3071 a83c b422 993c d8a5 1b3d 3b70 a83c
00000330: 6980 253c 0a66 a23c b059 573d d11a 2f3d
00000340: 2a3d 64bd 5826 a03d 3a29 343d 3fb1 18bb
00000350: 1eff a2bc 8679 30ba 3830 db3c a182 063d
00000360: c972 03be ab58 e4bc 626c cfbd 4af2 233d
00000370: b243 d6bb 18ac 45bd 6cd0 2f3c 981d d0bc
00000380: 8d94 543d f6bd 5d3c f9e6 4bbd 0864 0c3d
00000390: 3a19 d5bb a57a 68bd ff91 42bd ed8a eabd
000003a0: 271c aebd 09fe a1bd 4d10 5a3e b521 debd
000003b0: ec80 13bb bb0b 033d ae20 99bd f1e6 9d3d
000003c0: e802 1dbe c15b b5bd d5cf 493d 606c 403d
000003d0: 1d8b cebd ba6e e8bd 9423 4abd 63a5 ebbd
000003e0: 8cc1 263d 4d30 fb3b d790 903d f829 00bd
000003f0: 5da9 86bc ffde 46bb 8e28 ecbc b5f3 a33d
0.0731512 -0.033172313 -0.11701363 0.0021747393 -0.08271606 -0.007117757 -0.04189869 0.09763269
0.022479605 -0.06449247 -0.06476051 0.111450896 0.08109101 0.061857097 -0.020924909 0.009977925
0.062006325 0.056777384 -0.002365806 -0.007450399 0.052685015 0.10659311 0.08442103 -0.018792218
-0.00847207 0.11576677 0.21568556 0.05947384 0.04341398 0.017877765 -0.110960305 0.042310283
-0.04822197 -0.049253315 -0.0550844 0.025164286 0.00041653434 0.039300915 -0.05945375 -0.042824768
0.02969361 0.042639818 -0.094196185 0.014204945 -0.022260513 0.028571123 -0.10854697 -0.123248555
-0.1162904 -0.013891542 0.05933327 0.08147213 -0.003327377 0.04791948 -0.08589439 -0.019081946
-0.053022318 0.03711951 0.19801463 0.114699446 -0.06522954 0.06824138 0.19514146 0.1696778
0.069776714 0.013876387 -0.038953118 -0.09115076 -0.02704465 0.051185325 -0.07365287 -0.062475257
-0.045931194 -0.05243769 0.021309912 0.11197668 0.12123826 0.04897938 0.1289008 0.020066625
0.018676847 0.14225799 0.07638804 0.00074508484 -0.10678943 -0.13429095 -0.05840035 0.1903377
0.16689108 0.016089354 -0.056524552 0.0034055568 0.082690984 0.005834053 -0.06658813 0.0044028712
-0.118167125 -0.002178664 -0.0012676155 -0.02651909 -0.06568268 0.065909095 0.06718133 0.015170527
0.1551174 0.1082297 0.048091654 0.04152086 0.21409519 0.04682739 -0.016927488 0.004828172
-0.01688051 0.117833436 0.15313968 0.028043065 0.019155355 0.06224778 -0.12064652 -0.14177322
-0.07380382 -0.0971455 -0.05426728 -0.002127512 -0.092558734 0.0048938016 -0.043726027 -0.0918954
-0.15524517 0.030310536 -0.05558477 -0.07454032 -0.05819707 -0.15065777 -0.061462414 -0.034792997
0.05581973 -0.07968536 -0.011954268 -0.007468723 0.042551696 -0.04449843 0.169317 -0.08778125
-0.063124806 0.016349781 0.010861109 0.16864215 0.1429668 0.018364176 -0.034453712 -0.030760374
0.049462747 -0.021469407 -0.044694647 -0.04544498 -0.13179077 0.09455284 -0.018650396 0.062717184
-0.09819553 -0.17880096 0.073967576 0.045626372 -0.083112024 -0.03750413 0.008045929 0.041313034
-0.020224685 0.056794304 -0.047227513 -0.059193745 0.017107027 0.061791822 0.04157016 0.0016982426
-0.06104404 -0.14101969 -0.028002981 0.018318225 -0.0019892333 -0.031736836 -0.09414258 0.1720626
0.005892533 -0.14275171 0.015770253 -0.021694867 -0.032518264 -0.022622513 -0.11900662 -0.017247375
-0.03195542 0.008342549 0.06658176 0.024738144 -0.015331458 0.054131124 -0.020886999 0.06797685
0.020561785 0.018693306 0.037999958 0.020561328 0.010101416 0.019824047 0.052575767 0.042750183
-0.055722393 0.078198135 0.04398463 -0.0023299006 -0.01989704 -0.00067319756 0.02675639 0.03283942
-0.12836756 -0.027874311 -0.10128094 0.040025987 -0.0065388316 -0.048259825 0.010730844 -0.025404736
0.05189948 0.01353406 -0.04978082 0.034275085 -0.0065032514 -0.056757588 -0.047502514 -0.11452279
-0.085014634 -0.079097815 0.21295281 -0.10846273 -0.0022507263 0.03199361 -0.07476936 0.07710064
-0.1533314 -0.08855391 0.04927047 0.046978354 -0.100851275 -0.113492444 -0.049350336 -0.115061544
0.040711924 0.00766567 0.07058876 -0.031290025 -0.01643818 -0.0030345318 -0.028827932 0.08005468

c5.bias f4 [120]
00000000: f9ff a2bc 2ea9 d03d 5353 ddbc c99b 38bd
00000010: 415d 4fbc 0528 59bc d86e 5fbc 9c3d 9cbd
00000020: 3f10 89bd 8317 e43b cf86 60bc 82b9 35bc
00000030: b06b 78bd d88d 9c3d 9661 d4bb 38c1 9f3d
00000040: 206c ce3c 222d d5bd 5697 2a3d 83f8 3ebc
00000050: eeac 193c 7a32 ebbc b47d 993d c89b 12be
00000060: 7b16 a5bd f5a1 49bb d91e bd3d 08cd d13c
00000070: ddba a33c 0d31 e8bb ca9d c13d 292b 323d
00000080: 9e8d 93bc 9547 f3bc 1167 fe3d 6fae 843c
00000090: 1d8d f53c 915f 43bd 0785 1fbb 54fe a53d
000000a0: c4a3 5e3d 5ebf 1cbe fedb 8c3c 6581 893d
000000b0: 53ad 53bd bfce c03c 3e79 b83d ae8a a3bd
000000c0: f826 9cbd f5c5 323d b6e2 06bd 73d1 22bd
000000d0: 2e8b b0bb c148 b4bb 7b00 50bd fc05 ec3d
000000e0: 861c 283b ab19 0c3c 3da6 0d3c 8530 0a3d
000000f0: f0cf 4e3c 73ee 05bc 29ca 43bd 4854 28bb
00000100: db2a 8e3d 28ba 6b3b 1f1e 6b3d d2ef dd3b
00000110: 44b5 61bd 7aea b43b a2ab b53c 67ee c8bd
00000120: 7000 a9ba 9cf8 993d 7e9d fd3d e7d5 34bd
00000130: 8ebe a1bc 9fb7 fbbd 3810 233d b3a7 fcbc
00000140: 9dc6 bf3d 7cdd d53c 1a33 c8bd ca57 ca3c
00000150: 487b e4bb 06ed 463d f3f2 073c b3da 843c
00000160: 3b45 30bd bfd7 19bd b87d 81bd 1fbd bfbb
00000170: 5288 c2bc 066f ba3d 5286 cb3c d245 a53b
00000180: 9fd4 db3c 598e e2bb 836a 98bd 0000 4d3c
00000190: e311 d7bd e570 783d bf49 61bb 72eb a5bb
000001a0: 33be bbbc 51ef c3ba 39f2 12bd 7435 7e3d
000001b0: 7f43 69bd cbc0 afbd 7346 dbbc 9c36 ef3d
000001c0: 334d a3bc 915d 60bd 1765 39be cb1e b2bc
000001d0: 9723 483d 42af 5bbd 23d9 3ebd 0b98 803b
-0.019897448 0.101885185 -0.027017271 -0.045070443 -0.012656511 -0.01325417 -0.013637267 -0.076289386
-0.06692552 0.0069608106 -0.013704016 -0.011091592 -0.060649574 0.07644242 -0.0064813597 0.078005254
0.025198042 -0.10408999 0.04164823 -0.0116559295 0.009379609 -0.028710593 0.07494679 -0.14317238
-0.080609284 -0.00307667 0.09234399 0.025610462 0.019986564 -0.0070859254 0.09453924 0.043498192
-0.018011864 -0.029697219 0.12422002 0.016196458 0.029974515 -0.04769856 -0.0024340765 0.0810515
0.054355398 -0.15307376 0.017194744 0.06714133 -0.051678967 0.023536084 0.090075 -0.079854354
-0.0762462 0.043645818 -0.032931052 -0.039750528 -0.0053876853 -0.005501837 -0.05078171 0.11524579
0.0025651767 0.008551042 0.008645591 0.033737678 0.012622818 -0.0081745265 -0.047800217 -0.0025685001
0.06941768 0.0035969112 0.057401773 0.0067729736 -0.05510451 0.005521116 0.022176567 -0.09811097
-0.0012893807 0.075181216 0.12383555 -0.044149306 -0.019744184 -0.12290882 0.03981039 -0.030841684
0.09364054 0.026106589 -0.09775372 0.024700064 -0.006972704 0.048565887 0.00829767 0.016217565
-0.043034773 -0.037559267 -0.06322807 -0.0058514024 -0.023746643 0.09103207 0.024844322 0.0050437236
0.026834784 -0.006913942 -0.074421905 0.012512207 -0.105014585 0.06065454 -0.0034376231 -0.0050634677
-0.022917842 -0.0014948641 -0.035875533 0.062062696 -0.056949135 -0.08581694 -0.026766991 0.11680338
-0.019934272 -0.054776732 -0.18104969 -0.021743199 0.048862066 -0.053633936 -0.046593796 0.003924375

f6.weight f4 [84, 120]
00000000: e50f b03b 5e73 da3c 5868 c1bd 6b98 f83c
00000010: 1cc5 23be 7e0c 5dbe eb6a 00be 2d9b 22be
00000020: 2ea7 d5bd 6856 bbbd d8be 13bd bb0d 733c
00000030: d8a7 adbd 3ddc 5b3d cc5a 903d 7871 a7bd
00000040: 1417 e1bd 9731 9dbd 5e8f a53c d2eb 8f3d
00000050: 2d43 af3d 5bab cf3d 8f56 903c 1d91 04be
00000060: 3b82 0a3d cc08 82bd ac87 ea3d 6d2a 173d
00000070: 3f98 1a3c f806 cdbd 556c 8a3e a24f 833b
00000080: 5855 13bc fe55 90bd 8352 6ebd 7a0e 8bbc
00000090: 46ac 383d 1fb3 18bd 0991 d2bd a487 393e
000000a0: 81c2 143e 7f21 21be 677c 433d e3b8 5b3e
000000b0: 9d34 13be 957a 903c 5320 0fbd 76e2 08be
000000c0: 0ea8 24bc 11a9 cdbc 6a16 683d 4e7a 1e3e
000000d0: 0489 b5bc ebd3 db3d a72a f2bb 3fff 043d
000000e0: 16a4 42bd b841 173e ab2b 703d b743 e33d
000000f0: a3d0 efbd 2d49 0cbe c113 cfbd 6de7 7e3c
00000100: e8c8 7bbd 0669 9b3c d9ad 223e 1078 0b3e
00000110: 13ea 99bc d75a 8e3d 5e9f 323d 071f b3bc
00000120: 4306 1cbe 2164 993d 9458 623c d5e7 3c3c
00000130: 2d0c e7bd ed93 24bd 4e3d 163d 7d8b 0ebd
00000140: 6cf1 9d3d 9b09 8abd e073 623d 706b f7bd
00000150: 3698 fa3d a55c 743d df06 17be 0ea3 c23d
00000160: a90e f43c 2d50 d2bd 9b7f 75bd dbeb 91bd
00000170: c4c5 aa3d 8ec2 6a3d 2051 933c 354f 8cbd
00000180: 8d54 4b3d 0845 3fbd a5a4 a0bd 4dab a9bc
00000190: b49f 65ba cb01 87bc fb0a dcbb 3fdb 743c
000001a0: 4a6f f4bc 1734 74be d670 efbc 483f b13c
000001b0: 0b9e 89bd 07f9 af3d 9d10 18be 1548 da3d
000001c0: 20cd 913d 97b6 cd3c 75d7 f6bd a332 05bd
000001d0: 6a1d 033e bd5e 803d 874f c5bd 82a3 233d
000001e0: 80df 26bd 4362 87bd 8fce 21be 3261 f43d
000001f0: f8fb 753d 5fac 07bd 7553 ad3d b42d c03c
00000200: bb4f b53d 890d c8bd 1a2d 69bc 31d5 cebd
00000210: e90e 913d e6e8 a03d 8018 8bbd 9f3e 6bbc
00000220: b1bc fcbd dac8 7bbd 3892 92bd c71a 273d
00000230: 3130 b43d 9368 a73d 083c 57be f0ea d23d
00000240: 10e7 3bbd c1fe dc3d 3f4d 3d3d 4d52 efbd
00000250: c2a2 253c 3f68 d1bd 3702 43bd 78c3 813d
00000260: 0af7 bbbd a0c7 e73d c9e6 feba 5cf0 4fbd
00000270: 5512 f0bc 1b09 ed3d 3f10 a13d e6e8 c13d
00000280: 7697 963d cd72 a23d 00b5 113d e201 de3d
00000290: d46d 443d b525 fe3c a7ef 823d bfe9 ffbd
000002a0: 323a a8bc 6c12 91bd ea41 15bc 96fa 403e
000002b0: 4d0e d23c 04d5 893c c3b1 c73d 8500 3a3c
000002c0: 9a14 8dbd 584c b7bd 944a 773d 676d b6bd
000002d0: 2992 03be 1f2a c23b 6772 97bc ff17 f3bd
000002e0: 98dc bcbd 9484 14be 3dd2 9d3d 6b24 643c
000002f0: 2e4c a1bc 6d05 f3bc abae 0a3d 663e 8f3c
00000300: 572c 8a3d c4dc 29be 7f86 e5bd e04f aa3c
00000310: 2005 efbd c54e cb3d 6dd3 f8bd 723d 33bd
00000320: 1be4 a1bd 5234 60bd a023 a03d 47b4 db3d
00000330: bfdc e33d 5e73 bbbc 930b f4bc acd8 433d
00000340: 8c3e dc3d 3d8b b8bd b6be cdbd e1ae 9c3d
00000350: dd1c 243d 9773 16bc df19 94bd 12f0 df3d
00000360: 0881 c83d 75a4 b93d 0581 dfbc 5194 b73d
00000370: a76b 873d 7a22 abbd 169b 173d 3e28 983d
00000380: 80a7 29be 52d5 0cbd a1bb 9dbc 3329 cebd
00000390: fee8 323c 33c1 f33d f974 813d be09 143d
000003a0: d1e9 773d b161 c73d c14f 3d3d 1409 d7bc
000003b0: e9fc a7bd 1d34 b23d 5bfb ecbd 7a19 be3d
000003c0: 2d9b a4bc fd30 b6bd 01df c53d f69f f13d
000003d0: b017 8b3d 8a98 88bd 4b6e 7ebd 246f 3b3d
000003e0: 6cbd b63d 6531 f0bd b13c 763d a476 cdbd
000003f0: 3096 b33d 77f8 40bd 03a6 95bd 8a8e 9c3d
0.0053729885 0.02666634 -0.0944373 0.030346116 -0.1599316 -0.21586797 -0.12540786 -0.15879507
-0.104322776 -0.0914734 -0.036070675 0.014834817 -0.08479279 0.053676832 0.07048568 -0.08175939
-0.1099073 -0.07675474 0.020209964 0.07027401 0.08557735 0.10140105 0.0176194 -0.12945981
0.033815604 -0.06349334 0.114516586 0.036905695 0.009435712 -0.10011095 0.27035776 0.0040072957
-0.0089925155 -0.07047652 -0.058184158 -0.016974676 0.045086168 -0.0372802 -0.102815695 0.18118149
0.14527322 -0.15735434 0.04772606 0.21457247 -0.14375539 0.017636577 -0.034942936 -0.13367638
-0.010049833 -0.025105031 0.056662 0.15476343 -0.02216006 0.107337795 -0.0073903385 0.032469984
-0.047519766 0.14771163 0.058635395 0.110969 -0.11709716 -0.1369979 -0.1011119 0.015558106
-0.061470896 0.018970978 0.1588663 0.13620019 -0.018788373 0.0695092 0.043609016 -0.02186538
-0.15236764 0.07489801 0.013815064 0.011529882 -0.11281619 -0.040180136 0.03667956 -0.034800995
0.07712063 -0.06740113 0.05528629 -0.12081039 0.12236063 0.059658665 -0.14748715 0.095037565
0.029792147 -0.102691986 -0.059936147 -0.07125064 0.08338502 0.057314448 0.01798302 -0.06851045
0.04964118 -0.046696693 -0.078439035 -0.020711565 -0.00087594544 -0.016480347 -0.006715176 0.0149448505
-0.029838223 -0.23847996 -0.029228609 0.02163662 -0.067195974 0.0859242 -0.14850087 0.1065828
0.071192026 0.02511148 -0.12052814 -0.032518994 0.1280419 0.0626807 -0.09634309 0.039950855
-0.04074049 -0.06610539 -0.15801452 0.11932601 0.06005475 -0.03312337 0.08463184 0.023459293
0.08853098 -0.097682066 -0.014231944 -0.10099257 0.07082922 0.07856922 -0.067917824 -0.014358192
-0.123406775 -0.061470844 -0.07156795 0.04079702 0.08798254 0.08174243 -0.21018994 0.10298717
-0.045874655 0.10790778 0.046216246 -0.116856195 0.010109605 -0.102249615 -0.047609534 0.06336111
-0.09177978 0.11317372 -0.0019447441 -0.050766334 -0.029305616 0.11574002 0.07864427 0.0946825
0.07353108 0.07932053 0.035573006 0.10840203 0.047956303 0.03102384 0.06393366 -0.124957554
-0.020535562 -0.07083592 -0.009109953 0.18845591 0.025641585 0.016825207 0.09750702 0.011352663
-0.06888695 -0.08950108 0.060373858 -0.089075856 -0.12848724 0.0059254314 -0.018487168 -0.11869811
-0.092217624 -0.145037 0.077061154 0.013924698 -0.019689646 -0.029665673 0.033857983 0.017485809
0.067467384 -0.16588122 -0.11207294 0.02079004 -0.116708994 0.099271335 -0.12149701 -0.04375977
-0.07904836 -0.054737397 0.07819295 0.107277445 0.11126088 -0.02288216 -0.029790675 0.047814056
0.10754117 -0.090109326 -0.10046141 0.07650543 0.04006659 -0.009182832 -0.07231497 0.10934462
0.09790236 0.09064571 -0.027283201 0.08963836 0.0661233 -0.08356185 0.037013136 0.074295506
-0.16567802 -0.034383126 -0.019254507 -0.10066452 0.0109198075 0.11902084 0.06321139 0.036142103
0.06052572 0.0973543 0.046218637 -0.026249446 -0.08202536 0.08701346 -0.1157138 0.09282203
-0.020093525 -0.088960625 0.09661675 0.11798088 0.067916274 -0.066697195 -0.062116902 0.04576029
0.08922848 -0.11728171 0.060116474 -0.100323945 0.0876888 -0.047111955 -0.07307055 0.07644375

f6.bias f4 [84]
00000000: 014b 923d c006 c13d abdc 7d3d 25de c0bd
00000010: 42de 4fbd 80ae 113e aa01 a2bb 8a77 803d
00000020: e41e f03c 52a3 c03c 78d8 4c3d 0eed b7bc
00000030: c034 7bbd b3ce 103d 27e4 4abd 97e6 353d
00000040: e1dd b3bc fba6 8cbd 7fcf 063d 0e34 fdbc
00000050: 4a9d b73d 4784 5c3d 3708 2b3d 2389 b1bb
00000060: 5367 91bd cc45 b6bc 18eb acbc 5f93 03be
00000070: ed53 23bc 113e da3d 31f7 b73c 48af 6b3d
00000080: c16e dbbd 0747 643a 42fb 423d 733c 373d
00000090: 0a58 603d b585 48bd 40e6 54bd a692 8ebd
000000a0: ed2d 9abd f244 543d f65d 3f3d d0a7 f0bc
000000b0: e043 6c3d 1c16 843c bf55 e73a aba2 8ebd
000000c0: b44b 7c3d 50cf 06bd 6c23 3a3d 4400 8cbd
000000d0: 1988 9ebd 394a d9bc 2cd4 22bd 844d b5bc
000000e0: 220a c73d aae7 fdbc fbca 5fbd 2b85 0d3c
000000f0: 0134 283d 0626 863d cf8f c93c 3ed3 96bd
00000100: 0fdf 97bc 8e3e 59bc d3d0 54bd bdfb ab3d
00000110: fb63 10be 74ab 333d 5682 19bd baba 993d
00000120: 1fa2 0abc 4b4f 233d cf77 00bc 9407 153c
00000130: 6e6b d1bd 1f3c 9b3c 87c1 943c 3c95 833d
00000140: ce65 10bd c9b9 03be 4d34 e9ba 293e 353b
0.07143212 0.094251156 0.061978023 -0.09417371 -0.05074907 0.14226723 -0.004944046 0.062728
0.029311605 0.023515377 0.05001113 -0.022451904 -0.061329603 0.035353374 -0.04953399 0.04440936
-0.021956386 -0.068677865 0.032912727 -0.03090861 0.089655474 0.053837087 0.04175588 -0.0054179593
-0.07099786 -0.022250079 -0.021108195 -0.12849186 -0.00996874 0.106563695 0.022456737 0.057540208
-0.10714484 0.00087080937 0.0476029 0.044735383 0.05477146 -0.048955638 -0.051977396 -0.06961565
-0.07528291 0.051823564 0.046720468 -0.029376894 0.05768192 0.016123824 0.0017649456 -0.0696462
0.061595634 -0.032912552 0.045443937 -0.06835988 -0.07740802 -0.02652465 -0.039753124 -0.022131689
0.097187296 -0.030994255 -0.054636937 0.008637707 0.04106522 0.06550221 0.024604706 -0.0736451
-0.01853898 -0.013259543 -0.051956963 0.08397625 -0.1410064 0.043864682 -0.037477814 0.075063184
-0.008461504 0.03987054 -0.007841065 0.009096045 -0.10225569 0.018949566 0.018158687 0.064249486
-0.03525334 -0.1286384 -0.0017792076 0.0027655459

output.weight f4 [10, 84]
00000000: 3f00 e03e ce62 41be 0eb7 0ebf fde8 553e
00000010: d01e f4be 7378 3a3e 38f8 953e e7a2 153f
00000020: 01f1 ae3e 01cf 7dbd 95d5 debe 479c e5bd
00000030: 2a92 1abd 8c16 443e 8c03 28bf 7cd3 063d
00000040: 09e5 26bf f33d 483f 50b0 4cbf c358 6dbd
00000050: 02e6 57be bfd3 cb3e d001 1f3e 1c73 b4be
00000060: e2b2 0bbe 870e 513e 02cd f0be cb61 c93e
00000070: 1efe 9a3e 2dd0 e13e dfdc 7ebc b993 cdbd
00000080: 37ea 443e 5631 853e 3143 d0bd 45ef d2be
00000090: 7fca 9d3e bebe 333c 75f0 093e d443 aa3e
000000a0: 8b58 83be da3a 8a3e b98a 10bc c102 efbd
000000b0: 58e6 e13e 6ddf dfbe a2bf b3bd 6fb4 473d
000000c0: 65a3 adbe 6d12 08bf 162b 0e3f 7222 eb3d
000000d0: 462d 7cbe 3f4c 303e c87a 5f3e 0786 0cbe
000000e0: 9358 61be 365a 113e 84dc 453e 0482 8d3e
000000f0: f585 cb3e 9e1e 953e e3f6 3b3d 4abe 063e
00000100: 0d47 a5be 154b 183e feb6 46bd ad1f 403e
00000110: 1419 99ba 6e84 553e 517b 5abe 6e57 fbbd
00000120: 843f 333f cdb9 753d 251a d2be d25c 45bd
00000130: 01f7 e03e 3ae0 b83e e251 f7bd e090 afbd
00000140: 1edb ebbc 528e c83d d75b 9cbe a15f 463e
00000150: 58a1 733d 8506 0f3e e3b2 26be f05f 123e
00000160: 4361 f03e 298e 123d 77fc d1be 5437 693e
00000170: 4a20 ef3d 4b30 283c 9f2c be3e f51a 8b3e
00000180: 0500 04bf 696a 823e a063 b03e 4e89 bcbc
00000190: e32b 4f3e e00b 12bf 080e 63be 227b 193e
000001a0: bc4c 23bd e581 9ebd 56fb 913d 3c1b 79be
000001b0: 0c33 a9be 1b73 af3e 5e7e b6bd 0f0a ab3c
000001c0: cea5 fdbd dc72 eebe bdb7 3c3e d213 2c3e
000001d0: abe2 cebe a267 42be 680d 31bf f1e6 bcbe
000001e0: 1ab4 023e 92e8 233e 8af3 083f 3320 093f
000001f0: 3cf5 3d3e ca4c 36be 6eac 10bf ded0 8dbd
00000200: c721 9a3e 1f96 d0bc 98e8 c6be 5093 a43e
00000210: 09af 6bbe 6b66 423f 220a acbe 07b5 763e
00000220: ce83 a3be a13d 433e 7036 6d3e 0918 f53d
00000230: 4dc0 75be 6b67 acbe 3e7b 6a3e 05f8 053d
00000240: 5e51 bb39 b5d9 92be c3a5 cd3d c28c fc3d
00000250: 3933 b23c 8904 a53e 79c1 16ba daf0 ecbe
00000260: 515b 3b3e f5ba 96be cb63 2f3d 791d 23bf
00000270: 3989 e6be f489 643e 4f0e 9f3e 8d12 d63e
00000280: f0b3 bfbe 8a6f 13be 8576 743c 1db7 59be
00000290: a8dd b5be 7ab3 503e 9e89 85be 1b7d c9be
000002a0: f052 8cbe 484c 843d 8982 f1bd 2cc2 bfbe
000002b0: aec9 8abd 44e1 7b3e 4a4d eabe 810d b63e
000002c0: 1cc0 433e 779e f2be 12e9 2bbe 9fb1 08bc
000002d0: a882 d6bc 3035 4bbe cc66 bcbe 5e5f 1d3f
000002e0: d45e eb3d 9cd0 68be 179b 0c3f 4668 64be
000002f0: ef3b c2bc 9665 173d 15dc 98be d4dd 283f
00000300: a889 313f 2e44 c33d 8bec 23be c9f6 2b3e
00000310: 8b91 82bd 1de7 363e 7f1b 7bbe e6f7 dfbd
00000320: 1a9a 41be 589c 2f3d e6c1 95be 732f d4be
00000330: 203e fbbe 30ec 903d b319 00be f388 ecbe
00000340: 1447 0abf 3956 883e b669 c9be f8f4 9fbe
00000350: 54ed 883d eb14 33be 279d 5f3e 0385 82be
00000360: 57dd 533e a8a3 98bd cf08 843c b581 4e3e
00000370: 2915 38be cbff f73e fd8c ad3d 5cdc 44be
00000380: 6e34 bc3e 8abf 113d cc38 f43e 6874 ac3e
00000390: e61d 2bbe 86cd a1be 0744 273f 6a07 4dbe
000003a0: 30ab ed3e d3a4 763d 4638 43be 347e c3be
000003b0: 1c00 cdbc 2fad c83c b0d2 253e 17b2 1cbe
000003c0: 2517 db3e 8542 d8be 236a 8a3e e70e b4be
000003d0: e2e1 b4bd 981e eebe 5748 023d 1843 3dbd
000003e0: 6469 523e 0c29 9b3d 58fc b83e 554f c03d
000003f0: d2b0 423e 6398 333e a8f7 a53e af76 38be
0.43750188 -0.18885347 -0.5574807 0.20889659 -0.47679758 0.1821001 0.29290938 0.58451694
0.34168246 -0.061964992 -0.43522325 -0.11211448 -0.03773705 0.19149226 -0.6563041 0.03291653
-0.6519323 0.78219527 -0.7995653 -0.057945978 -0.21083835 0.39809987 0.15528035 -0.3524407
-0.13642457 0.20415698 -0.4703141 0.39332423 0.30272 0.44104138 -0.015555589 -0.100379415
0.19229971 0.26014203 -0.10169066 -0.41198173 0.30818555 0.010970769 0.13470633 0.33254874
-0.2565349 0.26998025 -0.008822137 -0.11670447 0.4412105 -0.43725148 -0.087767854 0.04875606
-0.33913723 -0.53153116 0.55534494 0.11481179 -0.24626645 0.17216586 0.21824181 -0.13723002
-0.22006445 0.14194569 0.19322401 0.27638257 0.3975064 0.29124922 0.045889746 0.13158527
-0.3228077 0.14872392 -0.04851436 0.18762083 -0.0011680447 0.20851299 -0.21336104 -0.12272535
0.7001879 0.059991647 -0.41035572 -0.048184223 0.4393845 0.3610857 -0.12076165 -0.085725546
-0.028791007 0.097927704 -0.30538818 0.19372417 0.05948004 0.13967331 -0.16279177 0.1429441
0.46949205 0.035780106 -0.41012928 0.22775012 0.116760805 0.01026542 0.37143418 0.27169004
-0.5156253 0.2547181 0.34451008 -0.02301469 0.20231585 -0.5704937 -0.22173321 0.14988378
-0.0398681 -0.07739619 0.07128017 -0.24326795 -0.33046758 0.34267506 -0.089108214 0.02087882
-0.1238514 -0.46572006 0.18429466 0.16804436 -0.4040731 -0.18984845 -0.6916108 -0.36894944
0.12764016 0.16006687 0.5349661 0.5356476 0.1855058 -0.1780273 -0.56513107 -0.06924604
0.30103895 -0.025462208 -0.3884933 0.3214364 -0.2301599 0.7593753 -0.3360148 0.24092494
-0.31936496 0.19066478 0.23165298 0.11967475 -0.23999138 -0.33672652 0.22898576 0.032707233
0.00035728043 -0.28681722 0.10041382 0.12331535 0.02175294 0.32230023 -0.00057508756 -0.46277505
0.18296553 -0.29439512 0.04281978 -0.63716847 -0.45026568 0.2231825 0.31065604 0.41811028
-0.3744197 -0.14398018 0.014920835 -0.21261258 -0.35520673 0.20380965 -0.26081556 -0.3935326
-0.27407026 0.06459862 -0.11792476 -0.3745283 -0.067767486 0.24597651 -0.45762092 0.35557178
0.19116253 -0.47386524 -0.16788128 -0.008343129 -0.026185349 -0.19844508 -0.36797178 0.61473644
0.114926964 -0.22735828 0.5492415 -0.22305402 -0.02371022 0.036962114 -0.2985541 0.6596348
0.6935067 0.095344886 -0.16008203 0.1679336 -0.06375416 0.178616 -0.24522208 -0.10935955
-0.18906441 0.04287371 -0.29249495 -0.4144245 -0.49070835 0.07076299 -0.12509803 -0.46198234
-0.54014707 0.26628283 -0.39338464 -0.31241584 0.06685892 -0.17488448 0.21837293 -0.25492105
0.20689903 -0.0745309 0.016117482 0.20166667 -0.17976822 0.48437342 0.08474157 -0.19224685
0.3675875 0.035583057 0.47699583 0.3368256 -0.16710624 -0.31602114 0.65338176 -0.2002236
0.46419668 0.060215782 -0.19064435 -0.38182223 -0.025024466 0.024496643 0.16193652 -0.15302311
0.42791095 -0.4223825 0.270341 -0.3516762 -0.08832146 -0.46507716 0.03180727 -0.046206564
0.20548016 0.075761884 0.36130023 0.093901314 0.19012764 0.175386 0.3241551 -0.18014024

output.bias f4 [10]
00000000: 74f4 97bd d316 06be e2e1 093e 611c ca3c
00000010: a801 5fbd 9c65 533e 4c7c d3bd 3a18 77bd
00000020: ed53 7e3e 2597 a0ba
-0.074196726 -0.13094644 0.13465074 0.024671735 -0.05444494 0.2064423 -0.10326442 -0.06032584
0.24836703 -0.0012252076
