checkpoints/best_model.pt (torch_old, 248494 bytes, 10 tensors)

c1.weight f4 [6, 1, 5, 5]
-0.21921474 -0.213088 -0.42697802 -0.3295996 0.40340558 -0.68572086 -0.8144871 -1.4634593
-1.0783489 0.31984153 -0.3664726 -1.1621925 -1.1094961 -0.56184924 0.8246143 0.06949108
-0.4037616 -0.3144098 0.37640858 1.2042704 0.54243845 0.72626674 0.7377703 0.9786602
1.0689301 -1.5957514 -1.054941 -0.114812985 -0.30882245 -0.5236164 -0.19016865 0.77327365
0.7927915 1.2983816 0.95092106 0.29953355 1.2073524 1.5683839 1.5974051 1.1869793
-0.23159371 0.9377497 1.230443 0.8839512 0.08212006 -1.1871371 -0.18117967 -0.1882142
-0.41526207 -1.3644675 0.5416355 0.92617834 0.8664633 0.9827067 1.0113579 0.5360369
0.28964832 -0.29476482 -0.51431644 -0.18203638 0.028917018 -0.7285261 -1.524657 -1.3093361
-0.5942219 0.3764251 -0.9428893 -1.7141346 -1.30205 -0.6288408 1.0771481 0.009469884
-0.14490953 0.17664231 0.56539065 -0.15694164 0.03127799 0.2380377 0.49307615 0.4873677
0.7701981 0.90801567 0.78649247 1.259464 1.0541513 0.9854781 1.1175902 0.96691823
1.0889013 0.8306971 0.6653233 1.041284 1.0279592 0.38049224 0.095267266 0.011082343
0.39478928 0.025730839 -0.19191073 -0.82855624 0.03810588 0.61999524 1.2486607 1.3143165
0.64254594 0.14908352 1.2292581 1.6837809 1.2319118 0.5116914 0.16068412 0.8322846
0.7410527 0.18964902 -0.42346463 -0.386187 -0.1273629 -0.72026956 -0.9212933 -0.6922743
-1.3422135 -1.515396 -1.3557601 -0.73198575 -0.6031028 0.8986393 1.2154346 0.9264413
0.8643177 0.96774703 0.48234516 0.41563916 -0.20729454 0.09764104 0.0066239396 0.19132257
-0.68858117 -1.0402236 -1.1691134 -0.5226782 0.052325405 -1.0104332 -1.3670703 -1.2264392
-0.57962006 0.21339071 -0.63870925 -0.60665375 -0.26515988 0.4097308
00000000: d479 60be be33 5abe dd9c dabe 47c1 a8be
00000010: 2d8b ce3e 678b 2fbf 3a82 50bf a252 bbbf
00000020: 5607 8abf 45c2 a33e 4ca2 bbbe b9c2 94bf
00000030: f803 8ebf 5ad5 0fbf ec19 533f 5751 8e3d
00000040: d7b9 cebe 52fa a0be a0b8 c03e 8825 9a3f
00000050: 3fdd 0a3f 9eec 393f 84de 3c3f 7a89 7a3f
00000060: b4d2 883f 9541 ccbf 4f08 87bf 1223 ebbd
00000070: fa1d 9ebe b90b 06bf 92bb 42be 43f5 453f
00000080: 62f4 4a3f 5e31 a63f 906f 733f 765c 993e
00000090: 868a 9a3f cec0 c83f c577 cc3f f0ee 973f
000000a0: e726 6dbe 5d10 703f 287f 9d3f a04a 623f
000000b0: 902e a83d 1cf4 97bf 2a87 39be 39bb 40be
000000c0: 3b9d d4be dfa6 aebf a0a8 0a3f 061a 6d3f
000000d0: 8ad0 5d3f ab92 7b3f 2d74 813f b739 093f
000000e0: c94c 943e 6aeb 96be 3eaa 03bf bf67 3abe
000000f0: 62e3 ec3c b080 3abf f627 c3bf 5398 a7bf
00000100: ed1e 18bf caba c03e 3161 71bf c368 dbbf
00000110: 93a9 a6bf b6fb 20bf fddf 893f 9327 1b3c
00000120: 2a63 14be b9e1 343e 71bd 103f 4fb5 20be
00000130: 5a1d 003d 28c0 733e 7a74 fc3e 4288 f93e
00000140: b42b 453f b773 683f 9257 493f 1e36 a13f
00000150: 6eee 863f 4b48 7c3f 320d 8f3f f487 773f
00000160: 1e61 8b3f 91a8 543f a152 2a3f cb48 853f
00000170: 2b94 833f e1cf c23e 7c1b c33d b792 353c
00000180: d221 ca3e 7bc9 d23c 3f84 44be 431c 54bf
00000190: e914 1c3d 02b8 1e3f 1dd4 9f3f 863b a83f
000001a0: e47d 243f 5aa9 183e 5458 9d3f 2286 d73f
000001b0: 49af 9d3f 35fe 023f 618a 243e 9b10 553f
000001c0: a1b5 3d3f 5a33 423e 5bd0 d8be 4dba c5be
000001d0: 6c6b 02be 9663 38bf e1d9 6bbf e338 31bf
000001e0: a7cd abbf 7ff8 c1bf 8c89 adbf 6b63 3bbf
000001f0: f264 1abf 3a0d 663f 5c93 9b3f 422b 6d3f
00000200: ed43 5d3f 45be 773f f2f5 f63e a8ce d43e
00000210: 0545 54be 07f8 c73d a20d d93b 10ea 433e
00000220: db46 30bf 0c26 85bf 82a5 95bf 3dce 05bf
00000230: 2a53 563d e055 81bf 29fc aebf f6fb 9cbf
00000240: fb61 14bf 1883 5a3e 7382 23bf a94d 1bbf
00000250: 09c3 87be 3cc8 d13e

c1.bias f4 [6]
-0.029053276 -1.2439929 0.79185253 -1.3712096 -0.5240934 0.45725238
00000000: 2301 eebc 293b 9fbf d9b6 4a3f cc83 afbf
00000010: fc2a 06bf fc1c ea3e

c3.weight f4 [16, 6, 5, 5]
-0.2845324 -0.15165733 0.17160325 0.041403763 -0.091254 -0.13049583 0.043290395 0.031788543
0.1192982 0.39645487 -0.2025802 -0.14321655 0.25734615 0.5388838 0.058455896 -0.18817244
0.0052709687 0.14356026 -0.31800887 -0.7816154 -0.2885733 -0.37846577 -0.3259247 -0.33869857
-0.48585168 0.06229929 -0.14033878 -0.12687789 -0.10018803 9.995761e-05 -0.09976849 -0.25064316
-0.28545526 -0.4336793 -0.23605362 0.09815813 -0.21060508 -0.39887416 -0.28683063 0.3262122
-0.04366576 -0.20505105 0.061167065 0.4965713 0.30937263 0.3789485 0.28906408 0.41846016
0.18697533 -0.3011627 -0.0612833 0.18789862 0.25183576 0.1189719 0.07426274 -0.041253775
0.104840316 0.20319536 0.36753017 0.0084254965 -0.18143535 0.098584436 0.13209078 -0.044318777
-0.5588755 -0.22204995 -0.021681596 -0.45488638 -0.58019364 -0.14091796 -0.4179021 -0.30993536
-0.25939372 -0.069192864 0.008267967 -0.06234422 -0.06743546 -0.028421797 0.038586043 0.14669418
0.045520987 -0.145215 -0.07995704 -0.19921617 -0.20105717 0.012369823 -0.18189795 -0.28589284
-0.21999858 0.10214942 0.028699743 -0.16689123 -0.017949743 0.26614425 0.30781215 0.12937239
0.27703443 0.14303143 0.190969 -0.12952691 -0.005873923 -0.025302045 -0.031234633 0.035675842
0.26967344 0.008462817 -0.2433749 -0.15544124 -0.0812049 -0.35009295 -0.026226457 -0.19905376
-0.33928964 -0.80859417 -0.46180624 -0.031533636 -0.37849855 -0.41158268 -0.07127395 0.6459127
0.23163895 0.27008006 0.31031412 0.41391337 0.33715615 -0.07646327 0.15178142 0.11636039
0.15184636 0.21137437 -0.07484358 0.13377345 0.09068927 0.251163 -0.10562163 -0.14307013
0.057250686 0.024641348 -0.18856165 -0.62222946 -0.17758903 -0.025342908 -0.36035722 -0.37645692
0.01227554 -0.31428638 -0.3149443 -0.23066014 -0.10009846 0.11473237 -0.08267662 -0.14046842
-0.32628882 -0.09838187 -0.08938856 -0.010313266 -0.012113612 -0.012256758 -0.24321635 -0.28885725
0.007417074 -0.15031539 -0.17755151 -0.104079 0.30962935 0.26119834 0.23591052 0.5543704
0.7977218 0.48833805 0.3638385 0.29894355 0.08557669 -0.21832973 -0.47787628 0.021859093
0.24754612 -0.032656215 -0.09995374 0.014122375 -0.030837385 0.04603129 0.14749599 0.28558123
0.11483512 -0.2509874 -0.091573045 -0.2857246 -0.76498836 -0.7729259 -0.8245032 -0.8523657
-0.86192846 -0.62296677 -0.059118528 -0.37509596 -0.27348623 0.00663466 0.39814806 0.121248275
-0.19855447 -0.21899892 -0.074503176 -0.1502155 -0.21896975 -0.1557314 -0.30651516 -0.20143114
-0.29251984 -0.052978422 0.11951105 0.1894809 0.473725 0.9089072 0.5912608 0.39315242
0.57574403 0.49463847 -0.09720524 -0.59273356 0.07560185 -0.005150293 -0.21423641 -0.43609074
-0.083333924 -0.03304337 -0.004097262 -0.19022423 -0.100631386 0.1014181 -0.064652264 0.013498114
0.13065903 0.20470071 0.12344664 -0.2849626 -0.1597036 -0.20789537 -0.34369084 -0.47944972
-0.73561096 -0.65428853 -0.71310395 -0.57646984 -0.31813407 -0.55041295 -0.41221613 -0.18257613
0.13603269 0.15640742 -0.1343002 0.123336904 0.26189986 0.14129637 -0.04464586 -0.15799916
00000000: 3bae 91be 0f4c 1bbe c3b8 2f3e fe96 293d
00000010: 61e3 babd b3a0 05be 4551 313d b434 023d
00000020: 9d52 f43d 22fc ca3e 2f71 4fbe 5ca7 12be
00000030: e0c2 833e 4af4 093f 736f 6f3d 47b0 40be
00000040: 17b8 ac3b 7601 133e 0fd2 a2be f217 48bf
00000050: e1bf 93be 44c6 c1be 9adf a6be e669 adbe
00000060: 8dc1 f8be 8a2d 7f3d f8b4 0fbe 47ec 01be
00000070: 622f cdbd 55a0 d138 6c53 ccbd 4d54 80be
00000080: 3127 92be 370b debe 0ab8 71be 2107 c93d
00000090: dca8 57be 3c39 ccbe 77db 92be 4905 a73e
000000a0: deda 32bd e7f8 51be 518a 7a3d 983e fe3e
000000b0: 1766 9e3e 8a05 c23e 3500 943e 6940 d63e
000000c0: 7676 3f3e ff31 9abe 3304 7bbd 7f68 403e
000000d0: 9ef0 803e 8aa7 f33d 1017 983d b8f9 28bd
000000e0: 85b6 d63d 7212 503e ea2c bc3e 180b 0a3c
000000f0: 30ca 39be a3e6 c93d ce42 073e 9b87 35bd
00000100: 7712 0fbf 1061 63be 9a9d b1bc dee6 e8be
00000110: 9287 14bf cc4c 10be 44f7 d5be d9af 9ebe
00000120: 41cf 84be fdb4 8dbd 5e76 073c a75c 7fbd
00000130: 9a1b 8abd d4d4 e8bc 660c 1e3d 0037 163e
00000140: 3774 3a3d 3eb3 14be 84c0 a3bd 53ff 4bbe
00000150: eee1 4dbe ccaa 4a3c 7543 3abe 8c60 92be
00000160: 4f47 61be b733 d13d b91b eb3c 89e5 2abe
00000170: 570b 93bc 0f44 883e 8e99 9d3e 327a 043e
00000180: 75d7 8d3e d576 123e 618d 433e b4a2 04be
00000190: 0a7a c0bb 3c46 cfbc c6df ffbc d520 123d
000001a0: a312 8a3e a1a7 0a3c 4537 79be fd2b 1fbe
000001b0: c14e a6bd 623f b3be ded8 d6bc c0d4 4bbe
000001c0: 5fb7 adbe 0700 4fbf de71 ecbe 6a29 01bd
000001d0: 90ca c1be f7ba d2be 14f8 91bd 895a 253f
000001e0: c332 6d3e ef47 8a3e 7ee1 9e3e 74ec d33e
000001f0: bb9f ac3e c698 9cbd 976c 1b3e 5b4e ee3d
00000200: 9d7d 1b3e 8672 583e 9747 99bd e8fb 083e
00000210: 4cbb b93d 7098 803e 2750 d8bd fa80 12be
00000220: b27f 6a3d a7dc c93c 4e16 41be 6e4a 1fbf
00000230: e6d9 35be ee9b cfbc be80 b8be f6be c0be
00000240: 591f 493c 25ea a0be 6140 a1be 2c32 6cbe
00000250: 6c00 cdbd cef8 ea3d 5c52 a9bd f4d6 0fbe
00000260: 540f a7be 6f7c c9bd 5911 b7bd f9f8 28bc
00000270: 2c78 46bc 92d0 48bc b50d 79be 19e5 93be
00000280: ed0a f33b 47ec 19be 10d0 35be 5f27 d5bd
00000290: bd87 9e3e cabb 853e 8792 713e 38eb 0d3f
000002a0: 7f37 4c3f 7207 fa3e 0a49 ba3e 210f 993e
000002b0: d542 af3d d491 5fbe 33ac f4be d711 b33c
000002c0: bb7c 7d3e 86c2 05bd 8cb4 ccbd 8961 673c
000002d0: af9e fcbc 4e8b 3c3d 3009 173e b437 923e
000002e0: ad2e eb3d 6c81 80be a68a bbbd 7f4a 92be
000002f0: 47d6 43bf 79de 45bf a412 53bf a334 5abf
00000300: 58a7 5cbf c07a 1fbf 4526 72bd 940c c0be
00000310: 6306 8cbe 9067 d93b 10da cb3e 0451 f83d
00000320: dd51 4bbe 4141 60be 1f95 98bd 18d2 19be
00000330: 9b39 60be 0d78 1fbe 8eef 9cbe f743 4ebe
00000340: 29c5 95be e7ff 58bd 36c2 f43d 4807 423e
00000350: 158c f23e 24ae 683f de5c 173f 464b c93e
00000360: f663 133f 4141 fd3e 8a13 c7bd 63bd 17bf
00000370: 25d5 9a3d cac3 a8bb ca60 5bbe 4947 dfbe
00000380: faaa aabd 7c58 07bd 5342 86bb 24ca 42be
00000390: d417 cebd 4bb4 cf3d 6868 84bd 3227 5d3c
000003a0: 7bcb 053e 109d 513e 98d1 fc3d 9ee6 91be
000003b0: 5789 23be 86e2 54be 3ff8 afbe 6f7a f5be
000003c0: 0051 3cbf 747f 27bf fb8d 36bf 8793 13bf
000003d0: 78e2 a2be dde7 0cbf fe0d d3be 3df5 3abe
000003e0: 274c 0b3e 4429 203e fe85 09be 0f98 fc3d
000003f0: bd17 863e ffaf 103e 94de 36bd 88ca 21be

c3.bias f4 [16]
-0.122914985 -0.12983885 -0.26892763 -0.021449182 0.03272822 -0.10633185 -0.01267265 -0.058060467
-0.0987907 -0.09344088 -0.1281726 -0.17250551 -0.13755965 -0.20538403 -0.15403534 -0.041312035
00000000: daba fbbd 7af4 04be e2b0 89be 32b6 afbc
00000010: 070e 063d 83c4 d9bd f2a0 4fbc d0d0 6dbd
00000020: c752 cabd ef5d bfbd ae3f 03be 49a5 30be
00000030: 70dc 0cbe 3150 52be 71bb 1dbe cf36 29bd

c5.weight f4 [120, 16, 5, 5]
0.07695156 -0.03693541 -0.12293093 0.00079158455 -0.08623115 -0.005616076 -0.03898688 0.091288544
0.017062994 -0.06751093 -0.06374612 0.11729023 0.07837213 0.052865524 -0.025820872 0.011814714
0.06634315 0.06288589 -0.0059554805 -0.011863738 0.05102848 0.11160851 0.08703339 -0.021920392
-0.008326759 0.11995719 0.21502154 0.05997965 0.042810906 0.014091776 -0.109886065 0.044722274
-0.04891157 -0.050240204 -0.05916204 0.030183433 -0.0021323266 0.039766178 -0.061160844 -0.04158735
0.025584783 0.04661458 -0.09826984 0.0089796325 -0.0280658 0.032647863 -0.10341118 -0.11868933
-0.11842107 -0.015728137 0.060063682 0.08791882 -0.0054887896 0.04897609 -0.08677025 -0.013127766
-0.05508298 0.03420636 0.20271108 0.11682879 -0.06406646 0.07253606 0.19473366 0.15950951
0.07439961 0.020035481 -0.0364492 -0.10156188 -0.02587165 0.045236897 -0.07333067 -0.064272836
-0.04837438 -0.061126538 0.021529458 0.11548958 0.12662461 0.04950513 0.13144803 0.018934147
0.016021136 0.14769731 0.0725462 -0.0032110014 -0.111437544 -0.1391917 -0.058811393 0.19460444
0.16237369 0.015028643 -0.056066994 0.0030874913 0.08618137 0.009879912 -0.0697558 0.008811361
-0.11719987 0.005580477 -0.00470704 -0.02748352 -0.06832208 0.06601336 0.06683337 0.010190743
0.1597611 0.108198784 0.04495959 0.035446092 0.21867506 0.044292673 -0.019014824 0.007558725
-0.017185854 0.124036856 0.15267225 0.025725853 0.016509565 0.06583287 -0.13072929 -0.14992554
-0.079099976 -0.09780116 -0.055056654 0.005774864 -0.09318506 0.007815221 -0.044444166 -0.09686903
-0.15851666 0.029633898 -0.052847594 -0.07933002 -0.061094582 -0.15415226 -0.0678132 -0.033258207
0.048773486 -0.08819686 -0.009470264 -0.006084984 0.042407878 -0.04387354 0.17887901 -0.08736333
-0.066455804 0.014315384 0.009021583 0.17621018 0.14917222 0.02451505 -0.037042223 -0.032269187
0.048413824 -0.022965072 -0.04234205 -0.045874026 -0.1328392 0.09922763 -0.009457998 0.0629973
-0.09751878 -0.18197116 0.07480472 0.056416206 -0.08377359 -0.04130774 0.00853689 0.0460883
-0.022334054 0.05550699 -0.051711425 -0.05807595 0.013568443 0.06605871 0.044761375 0.00569585
-0.058714826 -0.14149195 -0.021620883 0.0140133975 0.0014058929 -0.028729906 -0.10029772 0.17369123
0.006153446 -0.14281848 0.018297296 -0.014973025 -0.03229304 -0.024384646 -0.12339133 -0.015015114
-0.037708856 0.014111483 0.06405899 0.027338391 -0.016134549 0.05419145 -0.021269036 0.07423938
0.020219909 0.021076499 0.040047057 0.023176327 0.008364387 0.020093057 0.053634334 0.054676544
-0.053326957 0.07871651 0.045592856 -0.0014710362 -0.01858024 -0.00545621 0.027947627 0.032294597
-0.13161515 -0.030516393 -0.10406101 0.042542327 -0.00755043 -0.045116477 0.014703893 -0.022716232
0.047493566 0.018207142 -0.04996621 0.036259033 -0.008161735 -0.055734973 -0.049909547 -0.11329434
-0.08398864 -0.08171728 0.21528159 -0.10616628 -0.0031082109 0.033072993 -0.07629151 0.07854407
-0.15685678 -0.09405219 0.053471692 0.048890058 -0.106991075 -0.11441698 -0.050562516 -0.11800268
0.03645144 0.006348177 0.0736682 -0.027983036 -0.019607719 -0.0064510317 -0.03080533 0.08295228
00000000: c898 9d3d 9649 17bd 36c3 fbbd 5782 4f3a
00000010: f599 b0bd 0f07 b8bb b5b0 1fbd 7df5 ba3d
00000020: b1c7 8b3c 2c43 8abd 538d 82bd dc35 f03d
00000030: 9181 a03d 8589 583d 4b86 d3bc 8192 413c
00000040: ebde 873d 51ca 803d 3126 c3bb 2060 42bc
00000050: 3d03 513d 0193 e43d 903e b23d 6592 b3bc
00000060: f56c 08bc 1dac f53d 9b2e 5c3e 39ad 753d
00000070: 7d5a 2f3d 31e1 663c f20b e1bd b42e 373d
00000080: 8057 48bd acc8 4dbd e553 72bd 3f43 f73c
00000090: 81be 0bbb dce1 223d cb83 7abd 7f57 2abd
000000a0: 2e97 d13c eeee 3e3d b341 c9bd 4f1f 133c
000000b0: 40ea e5bc c4b9 053d 3ec9 d3bd 6413 f3bd
000000c0: bf86 f2bd 4bd8 80bc 5605 763d c80e b43d
000000d0: 4edb b3bb 279b 483d 9ab4 b1bd d715 57bc
000000e0: b19e 61bd f81b 0c3d 7e93 4f3e ef43 ef3d
000000f0: 4735 83bd c98d 943d 4368 473e 7656 233e
00000100: d35e 983d 7321 a43c c24b 15bd adff cfbd
00000110: c8f0 d3bc 534a 393d 642e 96bd 7aa1 83bd
00000120: 3724 46bd d25f 7abd 8c5e b03c cd85 ec3d
00000130: e2a9 013e e4c5 4a3d 509a 063e c91b 9b3c
00000140: c23e 833c f73d 173e 1a93 943d aa6f 52bb
00000150: 5e39 e4bd 4588 0ebe 37e4 70bd 6346 473e
00000160: 4a45 263e b33a 763c 81a6 65bd 8257 4a3b
00000170: dc7f b03d 5bdf 213c 21dc 8ebd 875d 103c
00000180: 7c06 f0bd 6fdc b63b 833d 9abb 1e25 e1bc
00000190: 72ec 8bbd 0332 873d efdf 883d 13f7 263c
000001a0: 6a98 233e 5397 dd3d 8c27 383d ec2f 113d
000001b0: 5bec 5f3e 3c6c 353d fac4 9bbc 2eaf f73b
000001c0: 59c9 8cbc 0907 fe3d 1d56 1c3e 06bf d23c
000001d0: 113f 873c 62d3 863d e6dd 05be 1586 19be
000001e0: 2bff a1bd f94b c8bd 1683 61bd 123b bd3b
000001f0: cfd7 bebd 6a0b 003c 160b 36bd 4563 c6bd
00000200: 3152 22be cac2 f23c b876 58bd c777 a2bd
00000210: 503e 7abd 17da 1dbe a6e1 8abd c239 08bd
00000220: b5c6 473d 8ea0 b4bd 2b29 1bbc 8c64 c7bb
00000230: e2b3 2d3d beb4 33bd 0f2c 373e 8ceb b2bd
00000240: fb19 88bd 138b 6a3c 43cf 133c 7170 343e
00000250: 9ac0 183e c9d3 c83c 96b9 17bd b22c 04bd
00000260: 934d 463d 3f21 bcbc db6e 2dbd 67e6 3bbd
00000270: 0007 08be db37 cb3d b8f5 1abc ba04 813d
00000280: edb7 c7bd a656 3abe 3833 993d ae14 673d
00000290: 7d91 abbd 4e32 29bd 50de 0b3c 16c7 3c3d
000002a0: e8f5 b6bc 4c5b 633d 5ccf 53bd 0ce1 6dbd
000002b0: 2d4e 5e3c ca49 873d b457 373d 41a4 ba3b
000002c0: f57e 70bd 44e3 10be 471e b1bc 7398 653c
000002d0: f045 b83a fb5a ebbc e468 cdbd 1ddc 313e
000002e0: d9a2 c93b 023f 12be 36e4 953c 6b51 75bc
000002f0: b545 04bd 4fc2 c7bc 98b4 fcbd f401 76bc
00000300: 9a74 1abd d933 673c 5c31 833d c3f4 df3c
00000310: 9a2c 84bc dbf7 5d3d 673c aebc d10a 983d
00000320: 39a4 a53c 9fa8 ac3c 6208 243d 48dc bd3c
00000330: c80a 093c 329a a43c adaf 5b3d 83f4 5f3d
00000340: 5e6d 5abd 1f36 a13d 93bf 3a3d c9cf c0ba
00000350: 9635 98bc 02ca b2bb 6cf2 e43c 5747 043d
00000360: 1fc6 06be 84fd f9bc f01d d5bd dd40 2e3d
00000370: 9969 f7bb 0ecc 38bd 99e8 703c 6417 babc
00000380: 9d88 423d 2527 953c 5ea9 4cbd 5a84 143d
00000390: ccb8 05bc 5b4a 64bd f46d 4cbd dd06 e8bd
000003a0: 3c02 acbd 645b a7bd c772 5c3e b56d d9bd
000003b0: 20b3 4bbb 8c77 073d b93e 9cbd b7db a03d
000003c0: 109f 20be 6f9e c0bd 2205 5b3d f140 483d
000003d0: 231e dbbd 7353 eabd a41a 4fbd 64ab f1bd
000003e0: 1b4e 153d 5e04 d03b 5adf 963d ae3c e5bc
000003f0: 5ea0 a0bc 2d63 d3bb 765b fcbc e3e2 a93d

c5.bias f4 [120]
-0.020991603 0.102161 -0.023310488 -0.04340631 -0.015738577 -0.016185293 -0.01570197 -0.079143696
-0.06812351 0.008479473 -0.016799062 -0.00980198 -0.060626213 0.07344216 -0.0047817472 0.076397486
0.023271242 -0.10496869 0.03936498 -0.011445395 0.010944152 -0.024091067 0.07856262 -0.14267704
-0.078434095 -0.0052298084 0.09310534 0.027417721 0.022527816 -0.006386788 0.10264263 0.042442646
-0.015863275 -0.03314242 0.12429612 0.016936868 0.02662528 -0.052083746 -0.007955509 0.08358999
0.05158971 -0.1549865 0.020616403 0.06315009 -0.050356537 0.025041249 0.086093485 -0.079307295
-0.07337903 0.04421478 -0.03284795 -0.04328576 -0.0044606165 -0.0045415796 -0.05434578 0.11586598
0.0056871786 0.010393763 0.009498394 0.032430243 0.015995258 -0.0048033227 -0.052656867 -0.0030605358
0.07090196 0.0042512026 0.061979257 0.0065534394 -0.05109842 0.0047702566 0.021147605 -0.09702911
-0.0001504973 0.07668147 0.12539211 -0.049079616 -0.02011607 -0.12545632 0.04012795 -0.031819217
0.094363816 0.02693342 -0.09494829 0.015265496 -0.0050548255 0.04666113 0.0059517543 0.01612617
-0.044303585 -0.036385886 -0.065465525 -0.007958338 -0.0260326 0.09287634 0.028010711 0.0009766974
0.028089028 -0.010676166 -0.07694019 0.012513176 -0.10593959 0.058310296 -0.005687566 -0.005350604
-0.016662527 -0.0065681734 -0.036755893 0.055271648 -0.053429388 -0.082973644 -0.030384047 0.11492402
-0.020329583 -0.0475442 -0.18350749 -0.020047093 0.0474395 -0.051821258 -0.046460237 0.001455344
00000000: 95f6 abbc c939 d13d a3f5 bebc d1ca 31bd
00000010: 30ee 80bc 0597 84bc 6ba1 80bc 1716 a2bd
00000020: 5784 8bbd 7ded 0a3c 309e 89bc 7c98 20bc
00000030: 3153 78bd d868 963d 34b0 9cbb 4976 9c3d
00000040: 55a3 be3c d3f9 d6bd 2c3d 213d 7785 3bbc
00000050: 1a4f 333c a15a c5bc 70e5 a03d ee19 12be
00000060: 0ea2 a0bd d05e abbb 03ae be3d 219b e03c
00000070: 418c b83c 4348 d1bb 4d36 d23d 57d8 2d3d
00000080: b3f3 81bc 59c0 07bd f78e fe3d 30bf 8a3c
00000090: 421d da3c c455 55bd d357 02bc 3b31 ab3d
000000a0: bb4f 533d c8b4 1ebe bbe3 a83c d654 813d
000000b0: a842 4ebd 4e23 cd3c c851 b03d dd6b a2bd
000000c0: bf47 96bd 8f1a 353d 928b 06bd 694c 31bd
000000d0: 5d2a 92bb 88d1 94bb ae99 5ebd 254b ed3d
000000e0: 835b ba3b 9a4a 2a3c 279f 1b3c 93d5 043d
000000f0: 7d08 833c 3165 9dbb baae 57bd 4593 48bb
00000100: 0c35 913d ac4d 8b3b f6dd 7d3d 3cbe d63b
00000110: 944c 51bd d04f 9c3b be3d ad3c 33b7 c6bd
00000120: d0ce 1db9 2d0b 9d3d ca66 003e b507 49bd
00000130: 75ca a4bc 9f77 00be 355d 243d de54 02bd
00000140: d141 c13d 7aa3 dc3c 4074 c2bd 221c 7a3c
00000150: f3a2 a5bb be1f 3f3d ef06 c33b 081b 843c
00000160: ad77 35bd 5e09 15bd ca12 86bd b063 02bc
00000170: 5242 d5bc f335 be3d b876 e53c 8704 803a
00000180: f61a e63c 16eb 2ebc d192 9dbd 1004 4d3c
00000190: dbf6 d8bd c7d6 6e3d c35e babb 1f54 afbb
000001a0: da7f 88bc d539 d7bb 598d 16bd 8664 623d
000001b0: c6d8 5abd 16ee a9bd f7e7 f8bc 495d eb3d
000001c0: 3a8a a6bc b5bd 42bd 63e9 3bbe cd39 a4bc
000001d0: ec4f 423d 8742 54bd 174d 3ebd 3ec1 be3a

f6.weight f4 [84, 120]
0.0061636805 0.027711287 -0.09564837 0.030412242 -0.16131885 -0.21718004 -0.12643391 -0.16133341
-0.10507964 -0.092419125 -0.035605486 0.015277681 -0.08536265 0.054381065 0.07057686 -0.08173888
-0.10925095 -0.07910382 0.021122549 0.06909616 0.08642646 0.10209511 0.017113712 -0.13237838
0.03295534 -0.064332955 0.11734278 0.035945076 0.00918724 -0.10318023 0.2724612 0.005285771
-0.009338371 -0.07048946 -0.058797527 -0.017000599 0.045487586 -0.039017234 -0.103450984 0.1830776
0.1468891 -0.16086854 0.04842542 0.21689452 -0.14638565 0.018308332 -0.03497692 -0.1366031
-0.010978137 -0.025018165 0.056907047 0.1556089 -0.0219327 0.10804932 -0.0074217864 0.032886464
-0.048878953 0.14851616 0.05956786 0.11105016 -0.11943675 -0.13846433 -0.103263974 0.014996289
-0.06151243 0.018167993 0.1604148 0.13785946 -0.020967722 0.06957532 0.044003446 -0.022973191
-0.15135655 0.0765422 0.01618315 0.010964937 -0.113487534 -0.042732336 0.037557557 -0.03577247
0.07836126 -0.06706072 0.054107 -0.121044666 0.12193354 0.060800232 -0.14836732 0.096245766
0.02976795 -0.10337227 -0.061487284 -0.07196239 0.08384314 0.057798777 0.017335752 -0.06898241
0.05025529 -0.048877962 -0.07999545 -0.020720407 -0.0027418374 -0.01585023 -0.0067786137 0.014672463
-0.031370696 -0.2410268 -0.029786088 0.020674217 -0.06717304 0.08489721 -0.14983445 0.107640006
0.07214664 0.024446318 -0.12474343 -0.03210036 0.128982 0.062292647 -0.098776795 0.04042949
-0.04057777 -0.065979324 -0.15855588 0.12009168 0.05933778 -0.033817016 0.085380726 0.023061575
0.08818636 -0.09922839 -0.013185054 -0.1012722 0.07118826 0.07921216 -0.06747291 -0.01549568
-0.1232321 -0.06251584 -0.072140954 0.041448336 0.088329166 0.08234272 -0.2114125 0.10318942
-0.046467073 0.10840459 0.047404 -0.11691219 0.009409665 -0.1025211 -0.046817537 0.06474037
-0.09137249 0.11443986 -0.003495799 -0.051326927 -0.029368076 0.115926355 0.07912518 0.09430581
0.07443718 0.079124056 0.03618742 0.11027098 0.04741357 0.031277448 0.063412845 -0.12644449
-0.020865746 -0.07188298 -0.009360746 0.19065477 0.026192065 0.017200265 0.09899053 0.010667047
-0.071156934 -0.0891468 0.061234202 -0.088969424 -0.13019365 0.004640954 -0.018621473 -0.12020842
-0.09369253 -0.1466095 0.07767189 0.0150117185 -0.021517856 -0.029493175 0.033974513 0.016679598
0.06747953 -0.16671924 -0.11136291 0.021699058 -0.11699475 0.0996468 -0.121204145 -0.04316788
-0.07926049 -0.05434959 0.07895329 0.10796814 0.11056521 -0.022701314 -0.029857472 0.049198378
0.10874334 -0.0922532 -0.10242602 0.076514184 0.040869396 -0.009714869 -0.07363537 0.11050801
0.097966604 0.09160865 -0.02849988 0.089675106 0.0656627 -0.08616421 0.03757792 0.07441428
-0.16703564 -0.035025377 -0.019270914 -0.10081437 0.010638568 0.119634196 0.063155144 0.03636836
0.061823677 0.09686016 0.04502351 -0.02574802 -0.08147108 0.08718412 -0.11617048 0.09461072
-0.02155868 -0.089358725 0.09728369 0.11848416 0.06819725 -0.06845381 -0.061103873 0.04544563
0.0897295 -0.11828836 0.06351965 -0.100276105 0.088023275 -0.04944856 -0.07521211 0.0762618
00000000: b3f8 c93b c802 e33c 4be3 c3bd 1823 f93c
00000010: c530 25be 7264 5ebe e477 01be 9634 25be
00000020: ff33 d7bd 3d46 bdbd 0fd7 11bd 3d4f 7a3c
00000030: 9dd2 aebd aebe 5e3d 9a8a 903d b766 a7bd
00000040: f6be dfbd 2f01 a2bd 3209 ad3c 4a82 8d3d
00000050: 5b00 b13d 3e17 d13d 0e32 8c3c 338e 07be
00000060: 2efc 063d ffc0 83bd 6951 f03d 253b 133d
00000070: 1486 163c 2850 d3bd 0980 8b3e 4334 ad3b
00000080: f8ff 18bc c75c 90bd add5 70bd d744 8bbc
00000090: 3151 3a3d 89d0 1fbd 1cde d3bd b278 3b3e
000000a0: 196a 163e b9ba 24be bc59 463d 9919 5e3e
000000b0: 1fe6 15be 5bfb 953c f543 0fbd afe1 0bbe
000000c0: a5dd 33bc e5f2 ccbc 5d17 693d f157 1f3e
000000d0: 35ac b3bc f648 dd3d 7532 f3bb f5b3 063d
000000e0: 4c35 48bd 9f14 183e 6efd 733d 446e e33d
000000f0: 419b f4bd 98c9 0dbe 107c d3bd ffb2 753c
00000100: 75f4 7bbd 0bd5 943c c743 243e 082b 0d3e
00000110: 80c4 abbc 817d 8e3d f53c 343d 4632 bcbc
00000120: 36fd 1abe 28c2 9c3d 8692 843c 47a6 333c
00000130: 276c e8bd 1a08 2fbd f4d5 193d 2786 12bd
00000140: de7b a03d 2157 89bd 4d9f 5d3d 44e6 f7bd
00000150: 4bb8 f93d aa09 793d 9aed 17be 801c c53d
00000160: eadb f33c d7b4 d3bd 17da 7bbd 0461 93bd
00000170: f4b5 ab3d 69be 6c3d b503 8e3c a646 8dbd
00000180: 7ed8 4d3d 4234 48bd a8d4 a3bd d8bd a9bc
00000190: 66b0 33bb 57d8 81bc 221f debb c564 703c
000001a0: 8f7e 00bd bbcf 76be f401 f4bc fa5c a93c
000001b0: 0592 89bd 97de ad3d 346e 19be 5d72 dc3d
000001c0: 9ec1 933d a543 c83c 7c79 ffbd ab7b 03bd
000001d0: db13 043e 9326 7f3d 7d4b cabd 6599 253d
000001e0: e034 26bd 2b20 87bd 795c 22be a0f2 f53d
000001f0: 2c0c 733d b683 0abd 17dc ae3d a1eb bc3c
00000200: 0d9b b43d 4138 cbbd 2006 58bc cd67 cfbd
00000210: 27cb 913d fc39 a23d 3d2f 8abd 98e1 7dbc
00000220: 1c61 fcbd 4e08 80bd a3be 93bd bbc5 293d
00000230: ece5 b43d 4da3 a83d 857c 58be fa54 d33d
00000240: 4254 3ebd 3a03 de3d b22a 423d a96f efbd
00000250: ff2a 1a3c 95f6 d1bd bfc3 3fbd 9996 843d
00000260: 8021 bbbd 725f ea3d c619 65bb 2f3c 52bd
00000270: 5295 f0bc cc6a ed3d 620c a23d 6823 c13d
00000280: 8572 983d cb0b a23d 4339 143d c0d5 e13d
00000290: bb34 423d c81c 003d 98de 813d aa7a 01be
000002a0: a4ee aabc 6237 93bd d05d 19bc 013b 433e
000002b0: be90 d63c 92e7 8c3c 8cbb ca3d d7c4 2e3c
000002c0: baba 91bd 9992 b6bd b7d0 7a3d 9a35 b6bd
000002d0: 7c51 05be 2513 983b 0f8c 98bc d52f f6bd
000002e0: dfe1 bfbd cd20 16be 7112 9f3d b6f3 753c
000002f0: 3746 b0bc ac9b f1bc dc28 0b3d a7a3 883c
00000300: b532 8a3d 73b8 2abe 3d12 e4bd 39c2 b13c
00000310: f29a efbd 9f13 cc3d e139 f8bd ced0 30bd
00000320: 5353 a2bd ad9d 5ebd 43b2 a13d 661e dd3d
00000330: 0370 e23d 1bf8 b9bc a897 f4bc 3d84 493d
00000340: d4b4 de3d 3fef bcbd bcc4 d1bd 78b3 9c3d
00000350: ab66 273d 1d2b 1fbc 24ce 96bd 0652 e23d
00000360: b7a2 c83d 519d bb3d 9578 e9bc 95a7 b73d
00000370: 2a7a 863d dd76 b0bd 4eeb 193d 8466 983d
00000380: 640b 2bbe c576 0fbd 09de 9dbc c477 cebd
00000390: 634d 2e3c c602 f53d 7c57 813d fdf6 143d
000003a0: d33a 7d3d 9f5e c63d 926a 383d 83ed d2bc
000003b0: 4fda a6bd 978d b23d caea edbd 44c3 c13d
000003c0: d49b b0bc b501 b7bd ac3c c73d d3a7 f23d
000003d0: 00ab 8b3d 8331 8cbd 0e48 7abd 3225 3a3d
000003e0: 1ac4 b73d 2b41 f2bd 9716 823d 8f5d cdbd
000003f0: 8c45 b43d 938a 4abd cf08 9abd 262f 9c3d

f6.bias f4 [84]
0.0724264 0.09467362 0.060913175 -0.0935714 -0.050802387 0.14227402 -0.00451679 0.062577836
0.027818521 0.023775555 0.049849275 -0.022988396 -0.060780074 0.035513174 -0.04991374 0.043615624
-0.021665862 -0.06826469 0.031773902 -0.030079704 0.089586265 0.05328435 0.043078814 -0.0060248785
-0.07286558 -0.0221161 -0.0211466 -0.12833087 -0.009968814 0.106476866 0.021488385 0.057094112
-0.107041866 0.0008128781 0.04826171 0.04546621 0.055435013 -0.048620332 -0.051217012 -0.06804899
-0.07533443 0.052138545 0.046992347 -0.029833758 0.058900483 0.015652271 0.0006273249 -0.07003992
0.06085849 -0.032460887 0.046038784 -0.068310946 -0.077484444 -0.026522275 -0.039275695 -0.022850486
0.09749127 -0.030492585 -0.05533608 0.008586146 0.042510573 0.06550111 0.025071014 -0.072068036
-0.019211723 -0.013538878 -0.051950898 0.08243194 -0.13989173 0.042365648 -0.03842471 0.073630065
-0.008720697 0.039323773 -0.007023062 0.010803649 -0.10213142 0.020502692 0.018417304 0.06395024
-0.035927966 -0.12848894 -0.0032248492 0.0028898306
00000000: 4b54 943d 3ee4 c13d 1880 793d 5da2 bfbd
00000010: 2a16 50bd 48b0 113e 9501 94bb cf28 803d
00000020: abe3 e33c f4c4 c23c c12e 4c3d 2952 bcbc
00000030: 87f4 78bd 4376 113d 5a72 4cbd 4ca6 323d
00000040: 9b7c b1bc 5cce 8bbd 5a25 023d b669 f6bc
00000050: 0179 b73d b140 5a3d 6973 303d 586c c5bb
00000060: 8d3a 95bd d32c b5bc a23b adbc 2b69 03be
00000070: 3d54 23bc 8b10 da3d 6908 b03c 84db 693d
00000080: c438 dbbd 5317 553a 12ae 453d c73a 3a3d
00000090: d30f 633d 1d26 47bd eec8 51bd 455d 8bbd
000000a0: f048 9abd 3a8f 553d 0c7b 403d ed65 f4bc
000000b0: a241 713d 3139 803c 1073 243a 1771 8fbd
000000c0: c146 793d b5f5 04bd 2a93 3c3d 9ce6 8bbd
000000d0: 2ab0 9ebd 3e45 d9bc 8ddf 20bd f130 bbbc
000000e0: 81a9 c73d 96cb f9bc 16a8 62bd e8ac 0c3c
000000f0: 911f 2e3d 7225 863d ba61 cd3c 6898 93bd
00000100: e761 9dbc 2cd2 5dbc 77ca 54bd 14d2 a83d
00000110: c73f 0fbe 9a87 2d3d 3b63 1dbd 5ccb 963d
00000120: 41e1 0ebc f711 213d b721 e6bb ca01 313c
00000130: 472a d1bd 43f5 a73c e3df 963c 58f8 823d
00000140: 3429 13bd 9b92 03be fe57 53bb 5063 3d3b

output.weight f4 [10, 84]
0.44496304 -0.19205453 -0.5707248 0.21288668 -0.48567805 0.19149876 0.29229712 0.5970029
0.34999144 -0.06252612 -0.4453447 -0.118002154 -0.039791636 0.1940482 -0.67035526 0.03632597
-0.664076 0.79294187 -0.8096217 -0.05693697 -0.21749772 0.40831167 0.15308689 -0.3617376
-0.13628235 0.21289296 -0.48055172 0.4015052 0.30976766 0.44897616 -0.016534211 -0.09934677
0.19505799 0.26297477 -0.10350282 -0.4212903 0.31402206 0.008994158 0.13351409 0.33891216
-0.25691247 0.2794044 -0.009255427 -0.11558689 0.44806936 -0.44392255 -0.0901101 0.04795656
-0.3437155 -0.5409403 0.568605 0.11503571 -0.25346458 0.17662407 0.2252079 -0.13778546
-0.22642255 0.1466311 0.1957473 0.27927914 0.4028821 0.3006927 0.047790438 0.13587978
-0.3256083 0.15470885 -0.0497091 0.1920888 0.00044991187 0.21898247 -0.2188156 -0.12508993
0.71588254 0.0631626 -0.41913003 -0.049715254 0.44117743 0.3660308 -0.12154374 -0.0846919
-0.033780158 0.09535723 -0.30815604 0.19807884 0.062499546 0.14045013 -0.15988934 0.14582956
0.4752558 0.03692063 -0.41596285 0.23020203 0.113000154 0.011336322 0.3763375 0.27629983
-0.51954424 0.25514147 0.34598082 -0.020220678 0.20538072 -0.583272 -0.22538142 0.15765472
-0.037742276 -0.07551494 0.06906885 -0.24775016 -0.33638403 0.3404827 -0.083978556 0.018478908
-0.12643057 -0.46980652 0.1890031 0.17038865 -0.40765506 -0.19663367 -0.6956541 -0.36366645
0.12967227 0.15218823 0.5356864 0.5367096 0.18851148 -0.17490833 -0.569556 -0.06812786
0.30901465 -0.03127868 -0.39370912 0.32455772 -0.22913139 0.76368994 -0.34063774 0.2437149
-0.31589565 0.18738784 0.23495756 0.11567845 -0.23460767 -0.34205645 0.22128636 0.030679915
-0.0019378035 -0.29078427 0.09804395 0.12534261 0.02071105 0.32252124 -0.0063304664 -0.46596187
0.18167876 -0.29708678 0.043252986 -0.63716334 -0.45093465 0.22304697 0.31622648 0.4283569
-0.38234696 -0.14470237 0.018745039 -0.20551796 -0.36299288 0.19699848 -0.2623002 -0.3997419
-0.2824721 0.0631786 -0.12109037 -0.3814892 -0.072993666 0.2438457 -0.45882285 0.35798478
0.19430143 -0.48253787 -0.17262043 -0.0074222693 -0.024652805 -0.20324063 -0.37523717 0.6222008
0.11420052 -0.2209329 0.55861396 -0.2310854 -0.025561174 0.0332252 -0.30344778 0.6759538
0.70992655 0.09219096 -0.1603451 0.17405733 -0.06329143 0.17879933 -0.24948941 -0.11200304
-0.18814026 0.050607584 -0.29674983 -0.42021742 -0.49940753 0.07478119 -0.1285299 -0.4717581
-0.55027 0.2605137 -0.39634264 -0.31946397 0.06344569 -0.17242815 0.22872631 -0.25604025
0.2092026 -0.07929594 0.016371422 0.20780836 -0.1798836 0.49251777 0.079852454 -0.19177748
0.36940485 0.035515234 0.4922627 0.3429238 -0.16681904 -0.32093477 0.66531515 -0.21197149
0.47181836 0.06184841 -0.19063148 -0.38172868 -0.023990855 0.023579167 0.16788031 -0.15726502
0.43244335 -0.4316077 0.27084756 -0.3665124 -0.081815496 -0.47339427 0.03141751 -0.050471466
0.21522744 0.082475044 0.36482766 0.09752562 0.19623257 0.17847353 0.33154166 -0.18114766
00000000: 32d2 e33e f1a9 44be 051b 12bf f7fe 593e
00000010: cbaa f8be 4018 443e f8a7 953e 2fd5 183f
00000020: 1432 b33e b20d 80bd 3804 e4be 1dab f1bd
00000030: 8efc 22bd 92b4 463e 679c 2bbf 8aca 143d
00000040: e200 2abf 3dfe 4a3f 5e43 4fbf be36 69bd
00000050: b9b7 5ebe 3a0e d13e cfc2 1c3e ac35 b9be
00000060: 9a8d 0bbe 9d00 5a3e e00a f6be 1792 cd3e
00000070: de99 9e3e 34e0 e53e c172 87bc 5276 cbbd
00000080: 48bd 473e a1a4 863e 49f9 d3bd 5db3 d7be
00000090: 80c7 a03e 3c5c 133c ebb7 083e e585 ad3e
000000a0: 088a 83be 180e 8f3e 13a4 17bc d2b8 ecbd
000000b0: 5969 e53e d149 e3be a58b b8bd 196e 443d
000000c0: 7afb afbe 107b 0abf 1990 113f d897 eb3d
000000d0: 1cc6 81be f1dc 343e e69c 663e a217 0dbe
000000e0: 50db 67be 7726 163e fb71 483e adfd 8e3e
000000f0: 9046 ce3e 65f4 993e e8bf 433d 1224 0b3e
00000100: 22b6 a6be ff6b 1e3e c59b 4bbd edb2 443e
00000110: 26e2 eb39 f13c 603e 3211 60be 9317 00be
00000120: 1444 373f 655b 813d 3698 d6be 39a2 4bbd
00000130: 02e2 e13e 6468 bb3e edeb f8bd f272 adbd
00000140: 105d 0abd a74a c33d a1c6 9dbe 2ed5 4a3e
00000150: 86ff 7f3d 29d2 0f3e 08ba 23be 5854 153e
00000160: ba54 f33e 163a 173d 15f9 d4be 15ba 6b3e
00000170: a06c e73d fbbb 393c 4faf c03e 2c77 8d3e
00000180: da00 05bf e7a1 823e 6624 b13e d6a5 a5bc
00000190: 534f 523e 5051 15bf 63ca 66be 3d70 213e
000001a0: a597 1abd 94a7 9abd f873 8d3d 38b2 7dbe
000001b0: 873a acbe c053 ae3e f3fc abbd 1461 973c
000001c0: 0477 01be 7b8a f0be 078a 413e 5d7a 2e3e
000001d0: 2ab8 d0be 565a 49be 6316 32bf 7d32 babe
000001e0: cfc8 043e 3bd7 1b3e be22 093f cd65 093f
000001f0: 2709 413e 2b1b 33be 6cce 11bf 9f86 8bbd
00000200: 2b37 9e3e 131e 00bd 3e94 c9be 6e2c a63e
00000210: 6ba1 6abe 2f81 433f 1268 aebe 6690 793e
00000220: 13bd a1be 99e2 3f3e b798 703e d3e8 ec3d
00000230: fe3c 70be 0622 afbe e498 623e 7254 fb3c
00000240: e5fd fdba ade1 94be 44cb c83d d059 003e
00000250: 38aa a93c 8121 a53e cd6f cfbb 8e92 eebe
00000260: ff09 3a3e c21b 98be 0b2a 313d 231d 23bf
00000270: e8e0 e6be 6d66 643e 70e8 a13e 9851 db3e
00000280: fbc2 c3be dc2c 14be 328f 993c 4d73 52be
00000290: 34da b9be f8b9 493e 364c 86be f8aa ccbe
000002a0: 2fa0 90be c863 813d 3afe f7bd 8d52 c3be
000002b0: b47d 95bd b0b2 793e d4ea eabe c849 b73e
000002c0: f4f6 463e 340f f7be 69c3 30be 8236 f3bb
000002d0: aef4 c9bc 501e 50be 161f c0be 8d48 1f3f
000002e0: f6e1 e93d 3c3c 62be 5301 0f3f a7a1 6cbe
000002f0: ab65 d1bc 2617 083d 825d 9bbe 4f0b 2d3f
00000300: bfbd 353f 9dce bc3d 8231 24be 163c 323e
00000310: f09e 81bd 2c17 373e 277a 7fbe da61 e5bd
00000320: d7a7 40be e649 4f3d 98ef 97be bd26 d7be
00000330: 58b2 ffbe e126 993d 589d 03be 478a f1be
00000340: 7fde 0cbf 0d62 853e 6ced cabe c890 a3be
00000350: d0ef 813d 0191 30be 3b37 6a3e b517 83be
00000360: 3539 563e e965 a2bd 5c1d 863c b7cb 543e
00000370: 6833 38be 4a2b fc3e af89 a33d 5161 44be
00000380: a222 bd3e 6c78 113d db09 fc3e b593 af3e
00000390: 9cd2 2abe 9051 a4be 1852 2a3f 0e0f 59be
000003a0: 2d92 f13e c254 7d3d e634 43be f171 c3be
000003b0: 7888 c4bc 1929 c13c d1e8 2b3e 150a 21be
000003c0: 3769 dd3e affb dcbe 88ac 8a3e 83a7 bbbe
000003d0: e28e a7bd bc60 f2be a6af 003d 2bbb 4ebd
000003e0: 9564 5c3e ade8 a83d b1ca ba3e 83bb c73d
000003f0: 31f1 483e c4c1 363e d4bf a93e c67e 39be

output.bias f4 [10]
-0.07476312 -0.13055685 0.13388187 0.026399236 -0.05575012 0.20563592 -0.10535637 -0.059305627
0.24915758 0.00035714294
00000000: 681d 99bd b2b0 05be 5418 093e 3643 d83c
00000010: 3d5a 64bd 3992 523e 15c5 d7bd 75ea 72bd
00000020: 2a23 7f3e ea3e bb39
