checkpoints/best_model.pt (torch_old, 248494 bytes, 10 tensors)

c1.weight f4 [6, 1, 5, 5]
-0.21575093 -0.20988208 -0.4245191 -0.32797942 0.4050893 -0.6863844 -0.8167361 -1.4685405
-1.083307 0.31972998 -0.3672976 -1.1658258 -1.1159086 -0.56497395 0.8272789 0.070877045
-0.40488246 -0.31665057 0.37689486 1.2061633 0.544233 0.72560006 0.7367212 0.9754637
1.0629193 -1.5980538 -1.057859 -0.11477249 -0.3102949 -0.5292535 -0.19211712 0.7749193
0.79625547 1.3011826 0.95156705 0.29841855 1.2104269 1.5723034 1.6004446 1.1867523
-0.23317184 0.94062257 1.2334185 0.8831536 0.07651007 -1.1909604 -0.1827015 -0.18914865
-0.41770443 -1.3706784 0.5351756 0.9228481 0.86472136 0.9818874 1.0131173 0.5306173
0.28671798 -0.2977842 -0.51773614 -0.18168414 0.02590501 -0.7328339 -1.5315813 -1.3151381
-0.596225 0.37592095 -0.9491664 -1.7236216 -1.3068973 -0.62867916 1.0788333 0.007005363
-0.14744571 0.17875841 0.5681227 -0.15755944 0.030484479 0.23609719 0.4913358 0.48535663
0.7728172 0.9101023 0.7881073 1.2625854 1.0570798 0.9901367 1.120705 0.9700283
1.0929135 0.83318883 0.66910607 1.044145 1.030287 0.38142565 0.09444444 0.011367496
0.39514786 0.024446536 -0.19379656 -0.8307026 0.028123349 0.61319965 1.2460266 1.3132366
0.64351726 0.142561 1.2289824 1.6860037 1.2322359 0.5117544 0.15835378 0.8325729
0.74052113 0.18546286 -0.42707416 -0.38820583 -0.13171427 -0.7277258 -0.9285644 -0.6965784
-1.3492982 -1.522233 -1.3602234 -0.7315605 -0.6016212 0.8957719 1.21553 0.9273066
0.86603534 0.97173226 0.47979105 0.41594586 -0.20727947 0.09751016 0.009229435 0.18789476
-0.69233364 -1.0448908 -1.1719685 -0.52318597 0.047942445 -1.0183287 -1.3754276 -1.2318504
-0.5807107 0.20940453 -0.64511424 -0.6106938 -0.26576948 0.4110276
00000000: d0ed 5cbe 54eb 56be 915a d9be ebec a7be
00000010: dd67 cf3e e3b6 2fbf 9e15 51bf 23f9 bbbf
00000020: cea9 8abf a6b3 a33e 6e0e bcbe c839 95bf
00000030: 18d6 8ebf 22a2 10bf 8dc8 533f fc27 913d
00000040: c14c cfbe 0620 a2be 5df8 c03e 8f63 9a3f
00000050: db52 0b3f edc0 393f c399 3c3f fdb7 793f
00000060: bd0d 883f 078d ccbf ec67 87bf d70d ebbd
00000070: f9de 9ebe 287d 07bf 5aba 44be 1c61 463f
00000080: 66d7 4b3f 278d a63f e699 733f 51ca 983e
00000090: 45ef 9a3f 3d41 c93f 5edb cc3f 80e7 973f
000000a0: 99c4 6ebe a4cc 703f a8e0 9d3f 5b16 623f
000000b0: 50b1 9c3d 6471 98bf 1a16 3bbe 2fb0 41be
000000c0: 5bdd d5be 6472 afbf 4501 093f c63f 6c3f
000000d0: 615e 5d3f f95c 7b3f d4ad 813f 89d6 073f
000000e0: b3cc 923e 2c77 98be 5b8a 04bf 680b 3abe
000000f0: be36 d43c 019b 3bbf db0a c4bf 7256 a8bf
00000100: 34a2 18bf b678 c03e 92fc 72bf a29f dcbf
00000110: 6948 a7bf 1ef1 20bf 3617 8a3f 3e8d e53b
00000120: 02fc 16be 720c 373e 7d70 113f 4357 21be
00000130: 96ba f93c 76c3 713e 5e90 fb3e aa80 f83e
00000140: 59d7 453f 77fc 683f 66c1 493f 669c a13f
00000150: 644e 873f 9979 7d3f 4373 8f3f c653 783f
00000160: 97e4 8b3f dd4b 553f 894a 2b3f 8ba6 853f
00000170: 72e0 833f 394a c33e 166c c13d bc3e 3a3c
00000180: d250 ca3e 1a44 c83c 9b72 46be eda8 54bf
00000190: f062 e63c a7fa 1c3f cd7d 9f3f 2318 a83f
000001a0: 8cbd 243f 83fb 113e 4c4f 9d3f f8ce d73f
000001b0: e8b9 9d3f 5602 033f 7e27 223e 7f23 553f
000001c0: cb92 3d3f fae9 3d3e 77a9 dabe eac2 c6be
000001d0: 1be0 06be 3d4c 3abf 66b6 6dbf f652 32bf
000001e0: ceb5 acbf 88d8 c2bf cd1b aebf 8d47 3bbf
000001f0: d903 1abf 4f51 653f 7d96 9b3f f763 6d3f
00000200: 7eb4 5d3f 72c3 783f 2ca7 f53e dbf6 d43e
00000210: 1241 54be 68b3 c73d 0e37 173c 7c67 403e
00000220: c73c 31bf fbbe 85bf 1003 96bf 84ef 05bf
00000230: 4c5f 443d 9858 82bf 030e b0bf 46ad 9dbf
00000240: 75a9 14bf 246e 563e 3526 25bf 6e56 1cbf
00000250: f012 88be 3672 d23e

c1.bias f4 [6]
-0.025962226 -1.2378929 0.7930407 -1.3752178 -0.535926 0.45480207
00000000: bcae d4bc 4673 9ebf b704 4b3f 2307 b0bf
00000010: 7232 09bf d1db e83e

c3.weight f4 [16, 6, 5, 5]
-0.2860576 -0.1525136 0.17117648 0.03969454 -0.09509682 -0.13050011 0.04633612 0.03324133
0.11826936 0.3978267 -0.20358355 -0.14137508 0.25783065 0.54123265 0.06140084 -0.18797009
0.0077546136 0.14053436 -0.32149652 -0.78591704 -0.28937826 -0.37977475 -0.3285312 -0.33997375
-0.48696676 0.065778725 -0.13861544 -0.124101184 -0.09640857 0.00329644 -0.0986439 -0.2528325
-0.2836876 -0.43270174 -0.23527545 0.10234399 -0.20782392 -0.39395967 -0.2865163 0.33018875
-0.04263569 -0.20299403 0.06671556 0.50043243 0.3134347 0.38268828 0.29120797 0.4211454
0.18785551 -0.29926085 -0.0612797 0.19156551 0.25275394 0.1187175 0.075607985 -0.04139029
0.10716636 0.20276809 0.37015548 0.009775851 -0.18409744 0.09616625 0.12801099 -0.04395014
-0.56197655 -0.22207643 -0.022076478 -0.45923725 -0.580834 -0.14231831 -0.4207051 -0.30941498
-0.2573884 -0.06768625 0.008438855 -0.060086533 -0.06376643 -0.024392562 0.04518255 0.15322737
0.047636908 -0.14322817 -0.0766857 -0.19640689 -0.19981061 0.016265089 -0.17924382 -0.28281865
-0.21793103 0.104771726 0.031105572 -0.16282628 -0.014141434 0.26960033 0.310903 0.13299042
0.28170145 0.14680316 0.1934268 -0.1282088 -0.002331531 -0.02171381 -0.027364427 0.041013207
0.2764765 0.008991445 -0.2456966 -0.15573211 -0.0791227 -0.349877 -0.026092764 -0.2016941
-0.3405013 -0.81047267 -0.462709 -0.030367836 -0.37807813 -0.4085455 -0.06786843 0.6521036
0.23325558 0.2739273 0.31621075 0.4177101 0.3386427 -0.075973004 0.15566568 0.11798383
0.15314943 0.21480864 -0.07557211 0.13503456 0.08955624 0.2535833 -0.103953496 -0.14580117
0.05469764 0.020121342 -0.18984264 -0.6249338 -0.17884538 -0.02573094 -0.3632736 -0.37638247
0.012666064 -0.31648898 -0.3141207 -0.22838742 -0.09746305 0.115321994 -0.08044583 -0.13844082
-0.32284802 -0.09622158 -0.08869832 -0.009389395 -0.010208034 -0.0095852325 -0.24257395 -0.2899949
0.007646042 -0.14909539 -0.17665796 -0.10350998 0.3115558 0.26444831 0.24074855 0.560057
0.8030133 0.49057165 0.36773816 0.30213904 0.08800181 -0.21812883 -0.4797058 0.0201002
0.2476237 -0.031261187 -0.096552834 0.017362857 -0.031383645 0.046825707 0.15170963 0.29037383
0.11953478 -0.25141382 -0.090799846 -0.28343347 -0.76306665 -0.77183867 -0.8289369 -0.85568583
-0.8633251 -0.6220885 -0.05543797 -0.37388852 -0.27047706 0.011697046 0.40509886 0.1266616
-0.19690096 -0.21937041 -0.07659742 -0.15422328 -0.22283563 -0.15517507 -0.30640152 -0.20305836
-0.29474518 -0.053792372 0.120993435 0.19039829 0.47475502 0.91079384 0.59230316 0.39515096
0.5777281 0.49539134 -0.09897126 -0.5973357 0.07322621 -0.00848845 -0.21833652 -0.44088146
-0.08777431 -0.035276666 -0.006328845 -0.19161883 -0.10098583 0.10322357 -0.06555418 0.012724521
0.13256416 0.2082888 0.12803125 -0.28794006 -0.16072367 -0.2073042 -0.34207445 -0.47646034
-0.7415225 -0.657991 -0.7128534 -0.5738505 -0.31480193 -0.55279624 -0.41205758 -0.17882816
0.1437851 0.16469175 -0.13559122 0.12170732 0.26118204 0.14048216 -0.045372434 -0.15985848
00000000: 2476 92be 862c 1cbe e348 2f3e be96 223d
00000010: 1fc2 c2bd d2a1 05be f2ca 3d3d 1028 083d
00000020: 3537 f23d f1af cb3e 3578 50be a1c4 10be
00000030: 6102 843e 398e 0a3f 727f 7b3d 3b7b 40be
00000040: 6a1a fe3b 3de8 0f3e 319b a4be dc31 49bf
00000050: 6329 94be d671 c2be 3e35 a8be 0a11 aebe
00000060: b553 f9be ffb6 863d 35f1 0dbe c328 febd
00000070: db71 c5bd 1609 583b d005 cabd 4373 81be
00000080: 803f 91be 158b ddbe 0cec 70be ba99 d13d
00000090: cbcf 54be 15b5 c9be 44b2 92be 800e a93e
000000a0: c3a2 2ebd abdd 4fbe 2ba2 883d 571c 003f
000000b0: 837a a03e b8ef c33e 3619 953e 5fa0 d73e
000000c0: 325d 403e b838 99be 6c00 7bbd c029 443e
000000d0: f768 813e 2922 f33d 5cd8 9a3d dd88 29bd
000000e0: 097a db3d 70a2 4f3e 0585 bd3e e42a 203c
000000f0: 0a84 3cbe d0f2 c43d 5015 033e 1005 34bd
00000100: b2dd 0fbf 0168 63be bbd9 b4bc 2521 ebbe
00000110: 89b1 14bf e4bb 11be a966 d7be a46b 9ebe
00000120: 6ac8 83be 179f 8abd 2043 0a3c 4c1d 76bd
00000130: f997 82bd e9d2 c7bc 5611 393d a3e7 1c3e
00000140: eb1e 433d 68aa 12be 640d 9dbd e31e 49be
00000150: 279b 4cbe 5d3e 853c b18b 37be 9bcd 90be
00000160: 5029 5fbe 8f92 d63d 1dd1 fe3c efbb 26be
00000170: 79b1 67bc 0e09 8a3e ae2e 9f3e a42e 083e
00000180: 2c3b 903e 9153 163e ad11 463e 2b49 03be
00000190: 99cc 18bb 29e1 b1bc 5d2b e0bc 77fd 273d
000001a0: 548e 8d3e db50 133c e497 7bbe 3d78 1fbe
000001b0: 150b a2bd 1423 b3be 7ec0 d5bc e688 4ebe
000001c0: 3056 aebe 237b 4fbf 32e8 ecbe f8c5 f8bc
000001d0: 7593 c1be e02c d1be 9afe 8abd 43f0 263f
000001e0: 8dda 6e3e 3340 8c3e 60e6 a13e 19de d53e
000001f0: 9362 ad3e bc97 9bbd d366 1f3e 82a1 f13d
00000200: 34d3 1c3e ccf6 5b3e 8dc5 9abd 8046 0a3e
00000210: 4369 b73d acd5 813e 92e5 d4bd e74c 15be
00000220: a20a 603d 83d5 a43c 1c66 42be a9fb 1fbf
00000230: 3e23 37be b1c9 d2bc fffe b9be 34b5 c0be
00000240: 5385 4f3c d80a a2be 6ed4 a0be 64de 69be
00000250: b59a c7bd f02d ec3d c9c0 a4bd 6ec3 0dbe
00000260: 564c a5be d20f c5bd 77a7 b5bd fad5 19bc
00000270: 993f 27bc 610b 1dbc 4e65 78be 367a 94be
00000280: a68b fa3b 76ac 18be d3e5 34be 0afd d3bd
00000290: 3e84 9f3e c565 873e ca86 763e e55f 0f3f
000002a0: 4892 4d3f 352c fb3e 2d48 bc3e f8b1 9a3e
000002b0: 4b3a b43d 2a5d 5fbe 009c f5be 2da9 a43c
000002c0: 1191 7d3e bb0b 00bd 7ebd c5bd 8d3c 8e3c
000002d0: 238c 00bd 50cc 3f3d c559 1b3e e1ab 943e
000002e0: a7ce f43d 50b9 80be 45f5 b9bd 311e 91be
000002f0: 5658 43bf 3897 45bf 3535 54bf 3a0e 5bbf
00000300: e002 5dbf 3141 1fbf ed12 63bd 516e bfbe
00000310: f87b 8abe f8a4 3f3c 1e69 cf3e 94b3 013e
00000320: 68a0 49be a3a2 60be 1cdf 9cbd b5ec 1dbe
00000330: 062f 64be 37e6 1ebe a9e0 9cbe 88ee 4fbe
00000340: d7e8 96be 6455 5cbd 68cb f73d c5f7 423e
00000350: 1713 f33e c929 693f 2ea1 173f 3a51 ca3e
00000360: fde5 133f efa3 fd3e 72b1 cabd feea 18bf
00000370: a0f7 953d 2413 0bbc 9c93 5fbe 37bb e1be
00000380: 04c3 b3bd 447e 10bd 3362 cfbb ba37 44be
00000390: a9d1 cebd e166 d33d 4541 86bd 827a 503c
000003a0: e6be 073e a949 553e a01a 033e e16c 93be
000003b0: bf94 24be 8d47 54be 6224 afbe 9cf2 f3be
000003c0: 6bd4 3dbf 1972 28bf 8f7d 36bf dee7 12bf
000003d0: b82d a1be 0e84 0dbf 36f9 d2be bb1e 37be
000003e0: 673c 133e f4a4 283e 6dd8 0abe b041 f93d
000003f0: a7b9 853e 8eda 0f3e 72d8 39bd f1b1 23be

c3.bias f4 [16]
-0.121701844 -0.12895198 -0.27204484 -0.024371013 0.038365904 -0.10157028 -0.008509803 -0.057814214
-0.09750517 -0.09378199 -0.13345753 -0.17238046 -0.1492201 -0.1998419 -0.15461823 -0.047745474
00000000: d13e f9bd fd0b 04be 7649 8bbe b8a5 c7bc
00000010: 9125 1d3d 1404 d0bd b36c 0bbc 99ce 6cbd
00000020: cab0 c7bd c610 c0bd 17a9 08be 8184 30be
00000030: 27cd 18be 5ba3 4cbe 3e54 1ebe c290 43bd

c5.weight f4 [120, 16, 5, 5]
0.0773409 -0.034773957 -0.12099169 0.00031063476 -0.08646907 -0.0071497085 -0.039427336 0.08878079
0.017096933 -0.06859746 -0.06523446 0.11672268 0.0803486 0.05186969 -0.02676974 0.013944341
0.0690956 0.06138012 -0.0052985535 -0.012516248 0.051988844 0.11281474 0.08625563 -0.022507714
-0.008243196 0.11799921 0.21521927 0.059867587 0.042606942 0.014281301 -0.10902912 0.04393715
-0.049197678 -0.050750416 -0.059961803 0.030452322 -0.002528049 0.03941031 -0.061847623 -0.04156735
0.026163267 0.049124837 -0.10006901 0.008789581 -0.028018305 0.031329986 -0.10474667 -0.12050142
-0.11975855 -0.016571874 0.06048437 0.089400105 -0.004579714 0.053596728 -0.08638129 -0.012166321
-0.056338195 0.039630145 0.20378451 0.120471716 -0.06511787 0.074648 0.19352932 0.16217422
0.07581052 0.019233469 -0.036394052 -0.10051422 -0.029779866 0.04544171 -0.07301959 -0.06216682
-0.051172636 -0.06169604 0.021540636 0.11660724 0.12735926 0.051002517 0.133625 0.018699372
0.015900308 0.14863668 0.07381986 -0.0046845996 -0.11253526 -0.14201269 -0.061741676 0.19239374
0.16137108 0.014343302 -0.057388294 0.005030289 0.08889771 0.0108338855 -0.07061844 0.010678664
-0.11750548 0.0066729314 -0.004770374 -0.027449628 -0.068166636 0.065287486 0.06477212 0.009967512
0.16066954 0.10969119 0.042416632 0.033592183 0.21869025 0.04481061 -0.02061607 0.006252963
-0.016399974 0.12450247 0.1509178 0.025632786 0.017751683 0.06608742 -0.13339376 -0.14955759
-0.08358838 -0.100298174 -0.054632705 0.005302401 -0.0948811 0.008113233 -0.045482337 -0.09781705
-0.16084427 0.030666025 -0.05292468 -0.07869261 -0.06034626 -0.15598403 -0.067403816 -0.033665203
0.050364655 -0.08989281 -0.012250698 -0.0044598076 0.04272988 -0.044253778 0.18098803 -0.08813586
-0.066912405 0.014375048 0.010213425 0.17774199 0.14991064 0.025223305 -0.035667077 -0.029840104
0.05190015 -0.020582525 -0.040251575 -0.05002805 -0.13348849 0.10027467 -0.011024806 0.06208414
-0.10097814 -0.18438825 0.076296985 0.055960014 -0.08479973 -0.04121478 0.007702798 0.04902023
-0.022838973 0.054067682 -0.049428664 -0.056590013 0.014345483 0.06780188 0.044437077 0.005579129
-0.05642913 -0.14365496 -0.02060092 0.0114916265 0.0025943397 -0.028196696 -0.10185505 0.17321844
0.0053320476 -0.14249942 0.018206842 -0.013838301 -0.030967986 -0.02764552 -0.12292859 -0.014239452
-0.03990972 0.016461972 0.0641401 0.027858283 -0.016394464 0.054003123 -0.020639706 0.075972214
0.020356786 0.022201868 0.040507503 0.02473924 0.008829331 0.02017154 0.053410344 0.05572603
-0.053721037 0.077525 0.045753054 -0.002616715 -0.018526493 -0.0060462668 0.025895437 0.0320692
-0.13224408 -0.030920066 -0.104444794 0.040397696 -0.0076421774 -0.044703886 0.015308849 -0.020207934
0.045699835 0.01700609 -0.04731647 0.037198145 -0.009816639 -0.05540995 -0.048820794 -0.1116462
-0.08481683 -0.08191819 0.21653534 -0.10145205 -0.0033408257 0.03356557 -0.07560761 0.08112366
-0.15590346 -0.09469493 0.05354018 0.04919314 -0.105333865 -0.11300725 -0.051345214 -0.12020049
0.036507405 0.006609466 0.07301278 -0.027273266 -0.020953435 -0.008929894 -0.031014659 0.08238294
00000000: e864 9e3d 236f 0ebd 7eca f7bd b1dc a239
00000010: b216 b1bd 1a48 eabb 8f7e 21bd b4d2 b53d
00000020: de0e 8c3c d37c 8cbd a599 85bd 4d0c ef3d
00000030: cf8d a43d 5075 543d 374c dbbc ce76 643c
00000040: fe81 8d3d b969 7b3d 7d9f adbb f310 4dbc
00000050: 41f2 543d 6a0b e73d cba6 b03d 1962 b8bc
00000060: 780e 07bc 92a9 f13d 7162 5c3e b737 753d
00000070: 9e84 2e3d 1efc 693c a94a dfbd 71f7 333d
00000080: 8183 49bd abdf 4fbd 829a 75bd 2677 f93c
00000090: a0ad 25bb b56c 213d ef53 7dbd 8742 2abd
000000a0: 5954 d63c 2037 493d fbf0 ccbd 2d02 103c
000000b0: a586 e5bc df53 003d 6c85 d6bd 73c9 f6bd
000000c0: f843 f5bd bdc1 87bc 75be 773d 6717 b73d
000000d0: 6d11 96bb 3e88 5b3d ace8 b0bd 4055 47bc
000000e0: e1c2 66bd 3853 223d e3ac 503e e0b9 f63d
000000f0: 855c 85bd 0de1 983d 8d2c 463e 0011 263e
00000100: 8c42 9b3d 828f 9d3c ee11 15bd 66da cdbd
00000110: e8f4 f3bc 1621 3a3d 4b8b 95bd a3a2 7ebd
00000120: 669a 51bd fdb4 7cbd fd75 b03c c7cf ee3d
00000130: 776a 023e 04e8 503d fed4 083e 6d2f 993c
00000140: 5d41 823c 3734 183e de2e 973d 4581 99bb
00000150: e378 e6bd c66b 11be d7e4 7cbd dd02 453e
00000160: 763e 253e 2b00 6b3c fd0f 6bbd 1fd5 a43b
00000170: 0110 b63d 9c80 313c 67a0 90bd 90f5 2e3c
00000180: b7a6 f0bd 9ba8 da3b cc50 9cbb 0bde e0bc
00000190: f39a 8bbd 72b5 853d 3fa7 843d c74e 233c
000001a0: 8e86 243e c6a5 e03d 10bd 2d3d f597 093d
000001b0: 56f0 5f3e 558b 373d 08e3 a8bc a8e5 cc3b
000001c0: 3d59 86bc 27fb fe3d 328a 1a3e d9fb d13c
000001d0: fa6b 913c d758 873d 6098 08be a025 19be
000001e0: 6230 abbd 2169 cdbd 8bc6 5fbd c3bf ad3b
000001f0: 0651 c2bd 5eed 043c b04b 3abd 4e54 c8bd
00000200: 5cb4 24be 5137 fb3c 8dc7 58bd 9729 a1bd
00000210: a42d 77bd 47ba 1fbe 030b 8abd 86e4 09bd
00000220: 2b4b 4e3d b919 b8bd 27b7 48bc 9423 92bb
00000230: 8705 2f3d 7343 35bd ed54 393e 9380 b4bd
00000240: 5f09 89bd 5285 6b3c 3656 273c ff01 363e
00000250: 2d82 193e 1ba1 ce3c a417 12bd 3c73 f4bc
00000260: 4095 543d af9c a8bc d6de 24bd 36ea 4cbd
00000270: 35b1 08be ce5c cd3d 63a1 34bc f04b 7e3d
00000280: a1cd cebd 46d0 3cbe 9841 9c3d 5436 653d
00000290: 7bab adbd d4d0 28bd c167 fc3b 70c9 483d
000002a0: cc18 bbbc 1376 5d3d b675 4abd eeca 67bd
000002b0: 5109 6b3c b6db 8a3d a703 363d 20d1 b63b
000002c0: 3b22 67bd 491a 13be 43c3 a8bc 6047 3c3c
000002d0: cc05 2a3b c2fc e6bc 6199 d0bd 2d60 313e
000002e0: 75b8 ae3b 5eeb 11be 8426 953c 0bba 62bc
000002f0: 93b0 fdbc dc78 e2bc fcc1 fbbd 974c 69bc
00000300: 6078 23bd 42db 863c e25b 833d 0e37 e43c
00000310: af4d 86bc 6132 5d3d 9a14 a9bc 5297 9b3d
00000320: 46c3 a63c b1e0 b53c 32eb 253d f2a9 ca3c
00000330: e6a8 103c c93e a53c cec4 5a3d fa40 643d
00000340: 970a 5cbd 6dc5 9e3d 8e67 3b3d 317d 2bbb
00000350: dfc4 97bc c31f c6bb ab22 d43c fe5a 033d
00000360: fe6a 07be 144c fdbc 27e7 d5bd 0e78 253d
00000370: 3b6b fabb 6c1b 37bd f7d1 7a3c 1c8b a5bc
00000380: c02f 3b3d 5b50 8b3c eace 41bd 155d 183d
00000390: f8d5 20bc 8bf5 62bd 50f8 47bd c3a6 e4bd
000003a0: 72b4 adbd b9c4 a7bd 71bb 5d3e 18c6 cfbd
000003b0: c1f1 5abb 0d7c 093d 2ad8 9abd 2924 a63d
000003c0: 28a5 1fbe 6aef c1bd f34c 5b3d bf7e 493d
000003d0: 48b9 d7bd 5870 e7bd 5c4f 52bd ad2b f6bd
000003e0: ca88 153d 3894 d83b b987 953d 2f6c dfbc
000003f0: 8aa6 abbc b14e 12bc 7412 febc 63b8 a83d

c5.bias f4 [120]
-0.02012209 0.10293654 -0.023939589 -0.043396194 -0.014252645 -0.015883313 -0.016408186 -0.07826643
-0.06718344 0.008784995 -0.015659012 -0.010212255 -0.061714876 0.074607745 -0.006836958 0.0784009
0.02505254 -0.10455435 0.04063125 -0.01089198 0.010403064 -0.02540223 0.08057196 -0.14533189
-0.07820657 -0.0065250136 0.093969055 0.0273391 0.019644065 -0.0068117804 0.10110986 0.044573892
-0.016818322 -0.03278793 0.12727505 0.015209606 0.027041413 -0.051168945 -0.005426307 0.08526117
0.05306518 -0.15767868 0.018333972 0.06560654 -0.050727755 0.02518026 0.0883912 -0.08089142
-0.07305762 0.046049677 -0.033946153 -0.04439155 -0.0052200025 -0.0056683705 -0.055570573 0.11891586
0.006749653 0.010320736 0.009638208 0.034215637 0.015729306 -0.002879583 -0.051444124 -0.0026891604
0.073246524 0.0038542103 0.0624275 0.004845889 -0.053235576 0.0048293164 0.022564456 -0.10021807
4.6008612e-05 0.0759557 0.125585 -0.04757979 -0.019747248 -0.12712754 0.040268607 -0.03360323
0.09728096 0.027319059 -0.09796676 0.017333705 -0.00404962 0.049892962 0.0063924473 0.013751248
-0.044365 -0.036329687 -0.06522395 -0.007948077 -0.027654132 0.095123395 0.027381495 0.0018105975
0.028665215 -0.011330925 -0.076124705 0.012633179 -0.10628426 0.06045609 -0.007647318 -0.004794865
-0.017840732 -0.006100525 -0.03835548 0.057404913 -0.055204887 -0.085438415 -0.029352756 0.11731489
-0.019352064 -0.049670834 -0.18542756 -0.02034002 0.04715854 -0.052594885 -0.048328232 0.00036237124
00000000: 15d7 a4bc 65d0 d23d f51c c4bc 35c0 31bd
00000010: ed83 69bc b91d 82bc 766a 86bc 264a a0bd
00000020: 7997 89bd f1ee 0f3c 5447 80bc 4d51 27bc
00000030: bdc8 7cbd f2cb 983d 9008 e0bb a790 a03d
00000040: fc3a cd3c 9720 d6bd f46c 263d 4674 32bc
00000050: 9d71 2a3c 5618 d0bc e902 a53d e2d1 14be
00000060: c42a a0bd c8cf d5bb d972 c03d 40f6 df3c
00000070: 97ec a03c 5b35 dfbb b012 cf3d 1d93 363d
00000080: 94c6 89bc a34c 06bd 6454 023e b631 793c
00000090: f485 dd3c 8796 51bd 2acf b1bb 699d ae3d
000000a0: e05a 593d 8576 21be 2031 963c b95c 863d
000000b0: e8c7 4fbd d546 ce3c 7206 b53d 67aa a5bd
000000c0: 3c9f 95bd 969e 3c3d 1f0b 0bbd ead3 35bd
000000d0: 8e0c abbb bdbd b9bb f89d 63bd 298a f33d
000000e0: 312c dd3b 4e18 293c 93e9 1d3c b225 0c3d
000000f0: bfda 803c 63b7 3cbb 13b7 52bd a03c 30bb
00000100: 4602 963d eb96 7c3b fab3 7f3d 43ca 9e3b
00000110: 8c0d 5abd 3e3f 9e3b 18d9 b83c 223f cdbd
00000120: 5ff9 4038 a98e 9b3d 5b99 003e 07e3 42bd
00000130: fbc4 a1bc b92d 02be b2f0 243d 8aa3 09bd
00000140: 3d3b c73d 38cc df3c cca2 c8bd 6aff 8d3c
00000150: adb2 84bb 905c 4c3d bc77 d13b ea4c 613c
00000160: 13b8 35bd 70ce 14bd 2294 85bd a738 02bc
00000170: eb8a e2bc 0ed0 c23d 284f e03c 9251 ed3a
00000180: 50d3 ea3c 58a5 39bc 45e7 9bbd 65fb 4e3c
00000190: 90ab d9bd cea0 773d 5a96 fabb 3e1e 9dbb
000001a0: ba26 92bc eae6 c7bb a31a 1dbd 6a21 6b3d
000001b0: 851e 62bd 56fa aebd 3175 f0bc ca42 f03d
000001c0: 3888 9ebc a573 4bbd b9e0 3dbe 1da0 a6bc
000001d0: 5029 413d bc6d 57bd d3f3 45bd a5fc bd39

f6.weight f4 [84, 120]
0.006595031 0.02805963 -0.0965871 0.030533805 -0.16174206 -0.21727817 -0.12677011 -0.16065511
-0.106099874 -0.092569284 -0.035375275 0.0143658975 -0.08483758 0.053840414 0.07089242 -0.08222492
-0.108702585 -0.078107364 0.02002003 0.06896524 0.08613799 0.103047825 0.017726893 -0.13258757
0.03285319 -0.064970605 0.11615747 0.036026713 0.009211743 -0.10387091 0.27333358 0.005747676
-0.009338892 -0.07027978 -0.058605265 -0.0180178 0.046150528 -0.038544416 -0.103300445 0.18354116
0.14633654 -0.16123225 0.04798502 0.21736117 -0.14594088 0.017908897 -0.035355 -0.13680622
-0.010955234 -0.02556291 0.056487076 0.15567008 -0.022158818 0.10752652 -0.0069546434 0.03305675
-0.049389753 0.14758056 0.059273254 0.11113066 -0.12192528 -0.13857822 -0.10389326 0.014723506
-0.060965877 0.018368073 0.15983264 0.13754454 -0.021572491 0.069220774 0.044128638 -0.023077818
-0.15165092 0.076245435 0.015654523 0.010725195 -0.11367098 -0.043056477 0.03725626 -0.036279473
0.07895828 -0.066803135 0.052914158 -0.120900355 0.12232215 0.062015384 -0.14689375 0.09604117
0.028980153 -0.103764005 -0.06184934 -0.071543775 0.08338561 0.058221605 0.016539106 -0.06869778
0.051766712 -0.049119815 -0.07957926 -0.021824008 -0.0033857666 -0.015231608 -0.0072015324 0.015230572
-0.0304985 -0.24086565 -0.0304533 0.020961225 -0.06752297 0.08429807 -0.14977707 0.10812055
0.07166972 0.02449865 -0.12450218 -0.031803835 0.1286776 0.062170133 -0.098220706 0.039562244
-0.040466666 -0.06618399 -0.15932198 0.120763674 0.05917017 -0.033596452 0.08515887 0.023237176
0.08789625 -0.099080704 -0.012795159 -0.10169873 0.07177858 0.07771219 -0.06688523 -0.01660512
-0.12407151 -0.061608963 -0.07268556 0.04108384 0.08843066 0.08256098 -0.21191405 0.103058554
-0.046485413 0.10786575 0.04554175 -0.1178382 0.009893415 -0.103092425 -0.046427518 0.06496853
-0.09184673 0.11462528 -0.0043395953 -0.05214717 -0.030217469 0.116227455 0.07901811 0.09518862
0.07375298 0.079133786 0.036991294 0.11021889 0.047695193 0.0317119 0.06255146 -0.1268617
-0.02019973 -0.072018124 -0.0097357575 0.19068818 0.026386347 0.01584803 0.09931564 0.00991105
-0.071505375 -0.08964419 0.060912184 -0.08956467 -0.13250129 0.0037212805 -0.01943493 -0.120802626
-0.09320355 -0.1462969 0.07753294 0.014531848 -0.022083705 -0.029666547 0.033709995 0.016899848
0.06724117 -0.16783173 -0.11222593 0.021500783 -0.11823949 0.099670425 -0.12194601 -0.043535225
-0.07910925 -0.05339103 0.07873692 0.107448824 0.1110296 -0.02134808 -0.029403677 0.04940369
0.10818359 -0.091523536 -0.10233714 0.07714813 0.040730067 -0.0091664605 -0.0746505 0.11057065
0.09895908 0.09113405 -0.027904866 0.08926588 0.06503003 -0.08645484 0.037559178 0.07475361
-0.16653574 -0.034995276 -0.018854802 -0.1003797 0.010938907 0.119291045 0.06312672 0.035622016
0.061558932 0.09777638 0.045769375 -0.025348393 -0.08268281 0.08662979 -0.11538683 0.094014384
-0.020151222 -0.08840011 0.09542735 0.11794403 0.0682866 -0.067431115 -0.062310804 0.04637575
0.0882773 -0.11706304 0.061340276 -0.10133195 0.08874019 -0.050106414 -0.07399699 0.07518257
00000000: 211b d83b 4fdd e53c 75cf c5bd 0822 fa3c
00000010: b69f 25be 2b7e 5ebe 06d0 01be c682 24be
00000020: e44a d9bd f794 bdbd aae5 10bd f15e 6b3c
00000030: 53bf adbd c487 5c3d 0c30 913d 8a65 a8bd
00000040: 769f debd c1f6 9fbd 0c01 a43c a63d 8d3d
00000050: 1d69 b03d bd0a d33d fd37 913c 09c5 07be
00000060: 1191 063d 4f0f 85bd f8e3 ed3d bf90 133d
00000070: daec 163c 46ba d4bd 61f2 8b3e 0057 bc3b
00000080: 2702 19bc d8ee 8fbd 130c 70bd 119a 93bc
00000090: 5608 3d3d c0e0 1dbd 2f8f d3bd 37f2 3b3e
000000a0: 3fd9 153e 111a 25be f18b 443d ed93 5e3e
000000b0: 8771 15be aeb5 923c 68d0 10bd ee16 0cbe
000000c0: 957d 33bc 4f69 d1bc fe5e 673d fa67 1f3e
000000d0: 6986 b5bc dd36 dc3d c7e3 e3bb 8466 073d
000000e0: e94c 4abd 5c1f 173e 83c8 723d 7998 e33d
000000f0: f6b3 f9bd 73e7 0dbe fdc5 d4bd dc3a 713c
00000100: 5bb7 79bd a478 963c 2bab 233e 7ad8 0c3e
00000110: cbb8 b0bc 9fc3 8d3d 3bc0 343d b10d bdbc
00000120: 614a 1bbe 9126 9c3d ea3d 803c bab8 2f3c
00000130: 55cc e8bd fd5b 30bd 059a 183d c999 14bd
00000140: e1b4 a13d 15d0 88bd 84bc 583d 9b9a f7bd
00000150: 0984 fa3d d803 7e3d 516b 16be 3cb1 c43d
00000160: c967 ed3c 3982 d4bd bc55 7dbd 8b85 92bd
00000170: 13c6 aa3d c779 6e3d 057d 873c 6cb1 8cbd
00000180: 5509 543d dc31 49bd 73fa a2bd 43c8 b2bc
00000190: bde3 5dbb ff8d 79bc d5fa ebbb a689 793c
000001a0: fed7 f9bc 7ca5 76be 3379 f9bc e0b6 ab3c
000001b0: 7c49 8abd 77a4 ac3d 295f 19be 4f6e dd3d
000001c0: 93c7 923d 65b1 c83c 00fb febd bd44 02bd
000001d0: 10c4 033e 1ca6 7e3d f027 c9bd 050c 223d
000001e0: 60c0 25bd 798b 87bd 4d25 23be f252 f73d
000001f0: 6c5c 723d 6f9c 09bd c667 ae3d e45b be3c
00000200: f302 b43d d3ea cabd c9a2 51bc 6c47 d0bd
00000210: a600 933d 9227 9f3d 20fb 88bd 7607 88bc
00000220: 3419 febd ae59 7cbd 2bdc 94bd 8747 283d
00000230: 221b b53d bb15 a93d ffff 58be 5d10 d33d
00000240: 7d67 3ebd b8e8 dc3d fc89 3a3d 2755 f1bd
00000250: fd17 223c 1f22 d3bd c82a 3ebd 380e 853d
00000260: 231a bcbd a9c0 ea3d 2a33 8ebb 4598 55bd
00000270: a08a f7bc a908 ee3d 3fd4 a13d 40f2 c23d
00000280: cd0b 973d e510 a23d 2f84 173d 71ba e13d
00000290: 095c 433d 56e4 013d fb1a 803d 09e8 01be
000002a0: e779 a5bc 3d7e 93bd ba82 1fbc c343 433e
000002b0: 2e28 d83c bad3 813c 0066 cb3d f561 223c
000002c0: 6971 92bd 6097 b7bd 0e7f 793d af6d b7bd
000002d0: 6bae 07be bae0 733b 0136 9fbc 5e67 f7bd
000002e0: 81e1 bebd dbce 15be 97c9 9e3d fd16 6e3c
000002f0: e3e8 b4bc 4207 f3bc 7e13 0a3d 8d71 8a3c
00000300: bdb5 893d 15dc 2bbe b5d6 e5bd 6922 b03c
00000310: 8c27 f2bd 0220 cc3d d4be f9bd fe51 32bd
00000320: 0804 a2bd 8db0 5abd d340 a13d 210e dc3d
00000330: 7d63 e33d 2be2 aebc fbdf f0bc 865b 4a3d
00000340: 5c8f dd3d b170 bbbd 2296 d1bd d7ff 9d3d
00000350: 92d4 263d ec2e 16bc 5de2 98bd dd72 e23d
00000360: 0fab ca3d 7da4 ba3d bf98 e4bc 08d1 b63d
00000370: 772e 853d 3c0f b1bd a7d7 193d 6c18 993d
00000380: 5888 2abe 3557 0fbd 6375 9abc df93 cdbd
00000390: 1a39 333c dd4e f43d 9548 813d 64e8 113d
000003a0: 3825 7c3d fc3e c83d ab78 3b3d 6fa7 cfbc
000003b0: 9b55 a9bd f66a b13d ee4f ecbd 9d8a c03d
000003c0: 2d14 a5bc 1e0b b5bd 6a6f c33d a48c f13d
000003d0: d8d9 8b3d 5319 8abd 9d39 7fbd 80f4 3d3d
000003e0: bbca b43d bfbe efbd f13f 7b3d 2087 cfbd
000003f0: 6bbd b53d 623c 4dbd bc8b 97bd 52f9 993d

f6.bias f4 [84]
0.07249964 0.09484019 0.06150188 -0.09332838 -0.05007817 0.14344776 -0.005643655 0.06276889
0.028316736 0.023770021 0.05007176 -0.023001503 -0.061316293 0.03555405 -0.049324114 0.044137035
-0.021547908 -0.069778435 0.032438535 -0.029317591 0.089701965 0.0542449 0.041913148 -0.0072190035
-0.07298743 -0.021092426 -0.021375485 -0.12895805 -0.010222522 0.10614364 0.022611069 0.057581495
-0.10757904 -0.00024230969 0.047614444 0.044809606 0.05584308 -0.04938843 -0.05144783 -0.067973435
-0.07440162 0.05281894 0.046732947 -0.028719211 0.058817618 0.015925257 0.00021107578 -0.07014152
0.060946118 -0.031679377 0.045973413 -0.06858091 -0.077937834 -0.026422374 -0.038749628 -0.022312291
0.097071745 -0.03092684 -0.05603947 0.007873159 0.041367117 0.0660192 0.024409894 -0.0718753
-0.019185694 -0.012936117 -0.052268516 0.082921304 -0.14049412 0.043710895 -0.03842014 0.074572794
-0.008505793 0.04041673 -0.007564559 0.011397002 -0.103618614 0.019828187 0.018418511 0.06476243
-0.036926676 -0.129454 -0.002536946 0.0023891276
00000000: b17a 943d 933b c23d 65e9 7b3d f322 bfbd
00000010: c41e 4dbd f8e3 123e 69ee b8bb fa8c 803d
00000020: 80f8 e73c 59b9 c23c 0c18 4d3d a66d bcbc
00000030: cb26 7bbd 20a1 113d 1508 4abd 09c9 343d
00000040: 3d85 b0bc ffe7 8ebd 45de 043d 722b f0bc
00000050: aab5 b73d e62f 5e3d 1fad 2b3d 648d ecbb
00000060: 6f7a 95bd 06ca acbc a41b afbc 940d 04be
00000070: 5d7c 27bc d661 d93d d93a b93c 93da 6b3d
00000080: 6652 dcbd 8314 7eb9 5d07 433d 478a 373d
00000090: b7bb 643d 864b 4abd f6ba 52bd a835 8bbd
000000a0: e05f 98bd ac58 583d 0c6b 3f3d 8d44 ebbc
000000b0: beea 703d af75 823c 3954 5d39 5ba6 8fbd
000000c0: a3a2 793d 3cc2 01bd 9e4e 3c3d 2674 8cbd
000000d0: df9d 9fbd bc73 d8bc eeb7 1ebd 44c8 b6bc
000000e0: 8dcd c63d 495a fdbc a589 65bd 6cfe 003c
000000f0: 9170 293d 1335 873d 42f7 c73c 5b33 93bd
00000100: 512b 9dbc 02f2 53bc 8317 56bd a5d2 a93d
00000110: b1dd 0fbe 320a 333d 705e 1dbd 9fb9 983d
00000120: e25b 0bbc 038c 253d 1fe0 f7bb 7eba 3a3c
00000130: ff35 d4bd b96e a23c 6be2 963c 2aa2 843d
00000140: 6d40 17bd 978f 04be e442 26bb e992 1c3b

output.weight f4 [10, 84]
0.44498536 -0.19361159 -0.5715488 0.21372966 -0.48732048 0.19151251 0.29409993 0.5975981
0.35200167 -0.06309126 -0.44634014 -0.11701179 -0.04113244 0.19475918 -0.67109376 0.035817105
-0.66748166 0.7961466 -0.8115435 -0.05796429 -0.21824959 0.40987942 0.15231274 -0.3632538
-0.13583505 0.21360604 -0.4818234 0.4024086 0.31070313 0.44833624 -0.013867952 -0.09889643
0.19577625 0.26444766 -0.10613248 -0.42386946 0.31584045 0.009246994 0.13383383 0.33949217
-0.25606185 0.27662528 -0.008139023 -0.11481887 0.44687715 -0.44311056 -0.088360935 0.050026264
-0.3453485 -0.54166806 0.56965715 0.11601125 -0.2547066 0.17735222 0.22369412 -0.13543284
-0.23076034 0.14533938 0.19853324 0.2786949 0.4033582 0.30255952 0.04627663 0.13284665
-0.3270102 0.1571884 -0.048968438 0.19645078 -0.0005753934 0.2213013 -0.21842659 -0.12510817
0.7165439 0.064985864 -0.42372724 -0.051803187 0.4433508 0.36524782 -0.122212544 -0.086163566
-0.03344671 0.09717664 -0.30915248 0.19833846 0.06302942 0.14062452 -0.15607177 0.14621434
0.47708905 0.03552705 -0.4146865 0.22810505 0.11226589 0.012743924 0.37843236 0.27743426
-0.51967126 0.25541022 0.34902164 -0.022133326 0.20558996 -0.58476794 -0.22629276 0.1580447
-0.036210816 -0.07484314 0.070122905 -0.24913254 -0.33799338 0.3390191 -0.083212376 0.0160433
-0.12730104 -0.47001854 0.19171403 0.1708672 -0.40767628 -0.19782132 -0.6954256 -0.36216614
0.13056885 0.15192159 0.536396 0.53558475 0.19015297 -0.17559655 -0.568365 -0.067365244
0.3079358 -0.031022739 -0.39418477 0.32565105 -0.22862987 0.7641595 -0.34339342 0.2421479
-0.31437585 0.18501927 0.2340918 0.11646209 -0.23465823 -0.34289172 0.21883284 0.028955864
-0.0033381225 -0.29134595 0.094078034 0.1250482 0.019383939 0.3212676 -0.005956563 -0.46440768
0.17873514 -0.29687318 0.043953534 -0.63405216 -0.4530381 0.22497158 0.3151435 0.42989025
-0.38224235 -0.14486183 0.017986026 -0.20493129 -0.3631058 0.19650352 -0.2616607 -0.40072206
-0.28300923 0.06545995 -0.1205146 -0.38636148 -0.07302794 0.24353676 -0.45951423 0.3560551
0.1905865 -0.48538813 -0.17048684 -0.007615951 -0.027907278 -0.20324565 -0.37608054 0.62165576
0.11127817 -0.22335485 0.5612208 -0.23358579 -0.028622122 0.03399372 -0.30036452 0.6824111
0.71400946 0.09111129 -0.1615548 0.17384458 -0.06432828 0.17795864 -0.24927385 -0.11283587
-0.19226071 0.054138903 -0.303192 -0.4213241 -0.5013385 0.07850569 -0.12686308 -0.47408688
-0.5497594 0.25441056 -0.39311695 -0.3282139 0.0605492 -0.1720167 0.23249 -0.25473344
0.21172334 -0.07944503 0.010963277 0.20891386 -0.1838043 0.49566475 0.0774656 -0.18949768
0.36536604 0.035948727 0.4997212 0.3426014 -0.16023368 -0.32221687 0.66439575 -0.21854211
0.47563657 0.06746113 -0.18589285 -0.38139486 -0.026625581 0.023435801 0.17131758 -0.1662312
0.4280666 -0.43466127 0.2666084 -0.36883655 -0.077842124 -0.48005772 0.03266688 -0.05711045
0.21696877 0.08731987 0.36453515 0.097711794 0.19871643 0.17904784 0.33224407 -0.17998746
00000000: 1fd5 e33e 1e42 46be 0651 12bf f3db 5a3e
00000010: 1282 f9be db1b 443e 4494 963e 30fc 183f
00000020: 9039 b43e fe35 81bd b286 e4be e1a3 efbd
00000030: 7d7a 28bd f36e 473e cdcc 2bbf f5b4 123d
00000040: 14e0 2abf 43d0 4b3f 51c1 4fbf f76b 6dbd
00000050: d27c 5fbe b7db d13e dff7 1b3e 67fc b9be
00000060: 5818 0bbe 8bbb 5a3e 8fb1 f6be 8008 ce3e
00000070: 7b14 9f3e 548c e53e 6836 63bc 368a cabd
00000080: 9279 483e af65 873e fc5b d9bd 6b05 d9be
00000090: d7b5 a13e b480 173c bc0b 093e ebd1 ad3e
000000a0: 8a1a 83be d4a1 8d3e 8959 05bc 2826 ebbd
000000b0: 15cd e43e 63df e2be 94f6 b4bd 57e8 4c3d
000000c0: 85d1 b0be c2aa 0abf 0dd5 113f 4e97 ed3d
000000d0: e768 82be d29b 353e 1210 653e e8ae 0abe
000000e0: 704c 6cbe d9d3 143e 4c4c 4b3e 19b1 8e3e
000000f0: f784 ce3e 15e9 9a3e 908c 3d3d f408 083e
00000100: e26d a7be fff5 203e 2193 48bd 652a 493e
00000110: ffd5 16ba cf9c 623e 38ab 5fbe 5b1c 00be
00000120: 6c6f 373f 4f17 853d c7f2 d8be 942f 54bd
00000130: e0fe e23e c301 bb3e 924a fabd 8676 b0bd
00000140: 6bff 08bd 8c04 c73d 3c49 9ebe 3d19 4b3e
00000150: 9215 813d e0ff 0f3e 47d1 1fbe 36b9 153e
00000160: 0445 f43e d084 113d ca51 d4be 5f94 693e
00000170: a9eb e53d e4cb 503c e3c1 c13e dd0b 8e3e
00000180: 2d09 05bf 21c5 823e f7b2 b23e f350 b5bc
00000190: 2d86 523e 5ab3 15bf 4ab9 67be 78d6 213e
000001a0: cb51 14bd 5c47 99bd 999c 8f3d 9a1c 7fbe
000001b0: 780d adbe e993 ad3e 406b aabd 3d6d 833c
000001c0: 345b 02be 45a6 f0be af50 443e d0f7 2e3e
000001d0: f2ba d0be ac91 4abe 6a07 32bf d76d b9be
000001e0: d7b3 053e 5591 1b3e 4051 093f 151c 093f
000001f0: 76b7 423e 95cf 33be 5e80 11bf caf6 89bd
00000200: c3a9 9d3e 6623 febc 96d2 c9be bcbb a63e
00000210: f31d 6abe f59f 433f 43d1 afbe 9ef5 773e
00000220: dff5 a0be b175 3d3e c3b5 6f3e ad83 ee3d
00000230: 3f4a 70be 818f afbe b715 603e d934 ed3c
00000240: 67c4 5abb 4c2b 95be fcab c03d a30c 003e
00000250: 11cb 9e3c 307d a43e 462f c3bb d8c6 edbe
00000260: 5806 373e c3ff 97be 9f08 343d 3e51 22bf
00000270: 9cf4 e7be f35e 663e 7d5a a13e 931a dc3e
00000280: 45b5 c3be a956 14be 6e57 933c 82d9 51be
00000290: 01e9 b9be 3838 493e 64f8 85be 712b cdbe
000002a0: 96e6 90be de0f 863d 5cd0 f6bd 2cd1 c5be
000002b0: ac8f 95bd b361 793e 7345 ebbe db4c b63e
000002c0: 1c29 433e cb84 f8be 1a94 2ebe 3a8f f9bb
000002d0: ce9d e4bc a11f 50be a18d c0be d524 1f3f
000002e0: cfe5 e33d 22b7 64be 2bac 0f3f 1d31 6fbe
000002f0: f178 eabc 003d 0b3d 61c9 99be 7eb2 2e3f
00000300: 53c9 363f 8e98 ba3d 9f6e 25be 5004 323e
00000310: 8cbe 83bd ca3a 363e a541 7fbe 7e16 e7bd
00000320: fedf 44be c1c0 5d3d fb3b 9bbe cbb7 d7be
00000330: b857 00bf 97c7 a03d 65e8 01be 84bb f2be
00000340: 08bd 0cbf 1a42 823e a046 c9be a70b a8be
00000350: 7002 783d 2525 30be dc11 6e3e 6c6c 82be
00000360: 01ce 583e 13b4 a2bd 519f 333c 84ed 553e
00000370: 3237 3cbe c5c7 fd3e 49a6 9e3d ae0b 42be
00000380: 4211 bb3e f93e 133d 75db ff3e 7369 af3e
00000390: 4c14 24be 9cf9 a4be d715 2a3f 81c9 5fbe
000003a0: a386 f33e 1029 8a3d b25a 3ebe 3046 c3be
000003b0: e41d dabc 70fc bf3c e06d 2f3e 8338 2abe
000003c0: 8c2b db3e ec8b debe e580 883e 25d8 bcbe
000003d0: b16b 9fbd 20ca f5be b5cd 053d a6ec 69bd
000003e0: 102d 5e3e c3d4 b23d 5aa4 ba3e 1f1d c83d
000003f0: 527c 4b3e 5158 373e e51b aa3e a24e 38be

output.bias f4 [10]
-0.075560465 -0.12997505 0.13374786 0.02515425 -0.0563435 0.20580688 -0.10574453 -0.05920279
0.25099814 0.0008129856
00000000: 72bf 9abd 2e18 05be 33f5 083e 4910 ce3c
00000010: 71c8 66bd 0abf 523e 9790 d8bd a07e 72bd
00000020: d482 803e 8a1e 553a
