checkpoints/newbest_model.pt (torch_old, 248494 bytes, 10 tensors)

c1.weight f4 [6, 1, 5, 5]
00000000: 6960 48bf 9e80 8ebe f804 3b3e b03b ff3e
00000010: 6bd8 f23e 985d 3bbf 5ee6 48be cf37 d43e
00000020: 9095 f23e 4db6 ee3e 41ce 20bf 6f76 afbd
00000030: 83b5 e93e edc2 343f 8025 dd3e c8fa 57bf
00000040: 07bf 95bd 74f4 b53e d491 213f 3d34 d33e
00000050: d923 03bf 2e9d 26be 0b87 243e a90b a03e
00000060: 1a72 fc3e e5c8 323e 3a59 79bd fe0e 69be
00000070: 92de cdbd 1a00 27bd d415 db3e 8735 6e3d
00000080: a1a2 11be 19db 4bbe a495 94be 60fe 103e
00000090: c260 f43d 18c7 953d d697 9fbe d461 afbe
000000a0: 7ec5 a53e fbb5 a23e 3aa2 a7be e756 bbbe
000000b0: f45a e0be 9da4 d63e 645f b43e 8e2e 88be
000000c0: 5fcf 91be 9257 c6be cd56 f43e 26f5 e63e
000000d0: 9752 7cbd 2940 b9be d8d2 e8be b25b 273f
000000e0: 389a a23e 1ec2 ebbc b614 97be f433 bfbe
000000f0: 2120 273f 599a 013f 9956 22be 7389 f0be
00000100: 1260 27bf 0c5d 103f f542 813e b763 9abe
00000110: 5fb3 9abe 6588 3cbf 96dc 333f d219 8e3d
00000120: 70c6 a5bd 0b13 ffbe 0849 22bf 8d8c 573e
00000130: fb08 013e 5291 723e 7058 c73c 7ce4 76be
00000140: d315 953e 623a d13e f753 b63e d9b7 d33c
00000150: 2e86 b1be ee2b 073f 5564 a53e 77e7 f73d
00000160: f419 70be 2261 e7be d30a 3a3e 0c56 f63e
00000170: 6a12 a63e 12d9 9dbe df33 17bf 8cc3 953e
00000180: addb 0d3f 7fa9 8d3e fbd5 afbe 5521 19bf
00000190: dfce aabe c0e0 89bd 70f7 313e f844 663e
000001a0: 11f2 ed3d 159d 9fbe 4b9e 363e f52e c93e
000001b0: 06c3 8e3d c481 d63c 1293 d7bd a5ad 973e
000001c0: fb87 363e bdd6 993e 2e5b 853d bada a3be
000001d0: 5eac b43e cd18 833e b14a 093e e40f cdbd
000001e0: 5928 b1bd 52b0 873e 09c7 7c3e 024a 20bd
000001f0: f6ab 3bbd 8099 313f fd7f 3239 63d0 80be
00000200: 28c2 efbe ba54 e3bd 1bf0 313f 63a8 903e
00000210: 3d51 c8be b3bd d5be 7134 16bc 599a 263f
00000220: fb0d 5bbc 2eb0 bebe c1de 81be fe63 76be
00000230: d584 db3e 4097 013c 018c fabe 26ad 0dbf
00000240: c29b c5be 79f7 743e 9cc0 50bd ac72 a3be
00000250: ee15 00bf 8b42 b3be
-0.7827211 -0.27832502 0.18263614 0.49850225 0.4743074 -0.7318969 -0.19619128 0.4144883
0.47379732 0.4662346 -0.6281472 -0.08567511 0.45646295 0.70609933 0.43192673 -0.84367037
-0.07311826 0.35538065 0.6311314 0.41250792 -0.51226574 -0.16270897 0.1606714 0.31258896
0.49305803 0.17459448 -0.06087611 -0.22759625 -0.100522175 -0.04077158 0.4279009 0.058156516
-0.14222194 -0.19907798 -0.29020417 0.14159536 0.119325176 0.07313365 -0.3117053 -0.34254324
0.32377237 0.31779465 -0.32740957 -0.3658974 -0.43819392 0.41922465 0.35229027 -0.26598018
-0.28478524 -0.38738686 0.47722474 0.45108908 -0.0616022 -0.36181763 -0.4547336 0.6537429
0.31758285 -0.028779086 -0.2950799 -0.37344325 0.652834 0.5062614 -0.15853347 -0.46979865
-0.65380967 0.5639198 0.25246397 -0.301542 -0.30214974 -0.7364562 0.7025846 0.069385186
-0.080944896 -0.49819216 -0.63392687 0.2104971 0.12601082 0.23688248 0.024334162 -0.24110597
0.29118213 0.40864855 0.35610935 0.025844501 -0.34672683 0.52801406 0.3230311 0.12104695
-0.234474 -0.45191294 0.18168192 0.48112524 0.32435924 -0.30829674 -0.59063524 0.29250753
0.55413324 0.27668378 -0.34342942 -0.59816486 -0.33360955 -0.06732321 0.17379546 0.22487247
0.11618436 -0.31174532 0.17833821 0.39293638 0.069707915 0.026184924 -0.10526098 0.29624668
0.1782531 0.30046645 0.06511532 -0.32002813 0.35287756 0.2560486 0.13407399 -0.100127965
-0.08650274 0.2650171 0.24685301 -0.03913308 -0.04581829 0.6937485 0.00017023082 -0.25158986
-0.46827817 -0.11100145 0.69506997 0.2825347 -0.3912448 -0.41746292 -0.009167776 0.65079266
-0.013370032 -0.3724379 -0.2536526 -0.24061581 0.4287478 0.007909596 -0.4893494 -0.5534233
-0.38595396 0.23922528 -0.050964937 -0.31923425 -0.5003346 -0.35011706

c1.bias f4 [6]
00000000: f329 1fbf 5000 043e d998 cbbc e06f 8bbe
00000010: 36f1 31be 2882 0a3f
-0.62173384 0.12890744 -0.024853157 -0.2723379 -0.17377171 0.5410485

c3.weight f4 [16, 6, 5, 5]
00000000: e45b 333e cd02 f3bd 172e cfbc c8c1 b93d
00000010: d331 fa3d 177b c53d 1cd9 02be 0cda 18be
00000020: 7b46 1a3e 89d6 213e 78f4 103d b1a6 afbe
00000030: 8e5d 17be 7283 423e 0d1f ad3e 9f62 4e3d
00000040: fc4c a3be 4885 3dbe 39c2 813e c6ec 463e
00000050: 81be 04bd 9fb2 b7be eb65 eabd 45c7 7c3e
00000060: 7f03 723e a44a 793c 1f2c 013e c6d0 f8bb
00000070: c8ec d2bd c9d8 2dbd e5e9 45bb 38dd e93d
00000080: 031a 5e3d ee10 0cbe d2a4 07be cb1c 47bb
00000090: b2dc 2c3e 48e4 043e 15d5 c4bd f530 b5bd
000000a0: b6fc 523d e9f3 5c3e f84e 3b3d 021f 25be
000000b0: ebe0 1bbe f1de b63d 3614 483e 3644 213d
000000c0: 7670 f6bd beaa 70bd a429 c1bd 010f fb3d
000000d0: 8a7e 0e3c dfb2 2bbd 7d75 c5bd 7b64 77bc
000000e0: e784 a33e c638 873c 27e4 85be a56e 06be
000000f0: 9078 913b ee63 c73e b8e2 d13d cf24 bebe
00000100: 7f76 21be 16d0 2e3e 7b44 cc3e 2663 623d
00000110: e7db d3be 29bc 4dbe 58b5 413d 5690 5a3e
00000120: 9bd4 853b e035 95be 6d1b b4bc cd27 f3bb
00000130: 3fa8 343d 297e a9bd 8999 a8bd fbdb 983c
00000140: 7e5a f73d 638d 433e 6637 63bd f985 73be
00000150: f9ec 743d 5a32 363e 6b9c 683d 561a 31be
00000160: d166 6bbe e9a5 e03c 9e1b fe3d ffdd 043e
00000170: 9293 90be 3e00 63be 7a4c bf3d e958 063e
00000180: 8291 e73c 4467 6fbe 1e13 1dbe e850 e43d
00000190: 0796 053e ff90 0dbd d729 84bd 2aa4 8f3b
000001a0: 30fa ad3d d3b4 063e 8565 70bc 21b8 10be
000001b0: 7fdc 6dbd 2142 9d3c e33f 8d3b 85ae 6a3c
000001c0: d756 54be d23f 853d 3297 9f3d 25e6 dbbc
000001d0: ce56 d1bc ab18 bebd 13c3 76bd e163 853d
000001e0: 1f26 5b3d a7c4 52bd 008b 35be 20da e4bc
000001f0: 6e3c 183e f004 d6bd a75c cfbb c5e4 053e
00000200: f73c 38bc 8be7 2ebe 42b4 e2bd 8d8f 173d
00000210: b78e 6d3e d466 5bbd 605f 62be 2cef e1bd
00000220: ecee 163e 1b58 393e f502 92bd c566 1ebe
00000230: 2ff3 cbbd ba2a 453e 6a81 2c3e 2b62 2abe
00000240: 25ae 92be b048 08bd 3665 783e 3edf 3c3e
00000250: 5ce8 10be 4cac 43be ccb7 773d af78 a3bd
00000260: f7d5 c8b9 a828 e1bb dc14 e63d fdc9 b8bc
00000270: 6319 16bd 9e91 f3bd 04ce 083e bb5e a53d
00000280: 73be c8bd 5b3b 0fbe b53f c3bd 509f 343e
00000290: e30a 593e 33fe 8fbd d098 fcbd 49b7 2a3c
000002a0: e3da 223e 8f24 503e e042 9ebd b5c2 01be
000002b0: 549b 19bd 2ead 363e 2fcd 983c d21b 973d
000002c0: 1ef7 3dbc f8f2 ef3d 6d10 58bd 82f5 3a3b
000002d0: f95c 33bc 20ae b63d 24fc da3d 067d dcbc
000002e0: b2f2 42bd 425b 0fbd f32c 953c 2112 c1bc
000002f0: 0915 92bd 7e64 46bc 3276 913d 3893 ca3d
00000300: 9ed1 383c b0d1 09bd 9ce5 5fbd b9b9 e7ba
00000310: ec47 903d 16be cc3c dc44 703d 48cb 0b3d
00000320: 0cfc f3bc b182 cc3d a14d 123e 7d28 133d
00000330: 4699 d53c f25b 8bbd 453f 133d 9c0b de3d
00000340: c218 ebbc b2d3 e3bd d06a 43bc a974 b33d
00000350: 8479 92bc 5da6 5ebe 3c6c 93bd a4e1 293d
00000360: b6be 403d e7b0 acbd 309f b0bd d1fd a7bd
00000370: b484 823d cf6d da3d 4e3e adbd c20e 11be
00000380: 1d4e 33bd a389 24bd 72f2 903d 2756 38bd
00000390: b7af 223c 48e7 8bbd 2a3b b1bd e3f1 983d
000003a0: 8254 30bd ee82 0fbe 876e 233c 7599 9abc
000003b0: 014f 653c 6a1b a9bd 82db 95bd 67c0 9d3d
000003c0: 9bd1 d4bc c84c 9a3d c590 10be f45a b6bd
000003d0: bbbf 373d e3f6 873d ecf4 68bc 02a0 aebd
000003e0: f3b6 6c3d 9c5a a8bb c24b 533d c8ca 3d3d
000003f0: 2381 75bd 0eb3 293d 78b8 0dbd a55d 72bd
0.17515522 -0.118657686 -0.025290532 0.09070164 0.122165345 0.09642618 -0.12778133 -0.14926928
0.15065949 0.15804495 0.035389394 -0.34306863 -0.14781782 0.18995455 0.33812752 0.05038702
-0.31894672 -0.18507874 0.25343493 0.1942626 -0.03240824 -0.35878465 -0.114452206 0.2468539
0.23634146 0.01521555 0.12614487 -0.007593247 -0.10299069 -0.04244307 -0.0030199226 0.11419147
0.054224025 -0.13678333 -0.13246468 -0.0030382152 0.16881064 0.12977707 -0.09610955 -0.088472284
0.051510535 0.2157742 0.045729607 -0.1612511 -0.15222518 0.089292414 0.1953896 0.03937169
-0.12033169 -0.058756582 -0.094317704 0.12258721 0.008697161 -0.04191863 -0.0964155 -0.01509964
0.31937334 0.016506564 -0.2615063 -0.13128145 0.004439421 0.38943428 0.10248321 -0.37137458
-0.15767859 0.17071566 0.39895996 0.055270337 -0.4137871 -0.20091309 0.047292084 0.21344122
0.0040841824 -0.29142666 -0.021985734 -0.007420516 0.044105764 -0.08276016 -0.082324095 0.018659582
0.12077807 0.19096904 -0.055472754 -0.23781575 0.059796307 0.17792645 0.056789797 -0.17295203
-0.2298844 0.027422862 0.12407611 0.1297531 -0.28237587 -0.22168061 0.093407586 0.13119854
0.028267626 -0.23379236 -0.15339324 0.11148244 0.13045512 -0.034562107 -0.06453293 0.0043835836
0.08494985 0.13154916 -0.014672642 -0.1413274 -0.05807161 0.019196572 0.0043105944 0.014323835
-0.20736252 0.065063134 0.0779251 -0.02684314 -0.025554087 -0.09282049 -0.06024463 0.06513191
0.053503152 -0.051457074 -0.17728806 -0.027936041 0.14866802 -0.104501605 -0.0063281837 0.1307555
-0.011245004 -0.17080514 -0.11069538 0.037002135 0.23198973 -0.05356486 -0.22106695 -0.110319465
0.14739579 0.18100016 -0.0712947 -0.15468891 -0.09958493 0.1925458 0.16846243 -0.1663901
-0.28648487 -0.033272445 0.24257359 0.18444535 -0.14151138 -0.19108695 0.060478017 -0.07982003
-0.0003830639 -0.0068713017 0.11234447 -0.022557253 -0.036645304 -0.11893009 0.13359839 0.08074709
-0.0980195 -0.13987486 -0.095336355 0.17638898 0.21195559 -0.070309065 -0.12333834 0.010419675
0.15903811 0.20326446 -0.07727599 -0.12671931 -0.037501648 0.178395 0.018652527 0.07378353
-0.011594562 0.117162645 -0.05275004 0.0028527682 -0.010947459 0.089199305 0.10692623 -0.026915085
-0.047594734 -0.03499914 0.01820991 -0.023568215 -0.071329184 -0.01210892 0.07102622 0.09891361
0.011280445 -0.03364724 -0.054662332 -0.0017679251 0.07044968 0.024992984 0.05865942 0.03412941
-0.029783271 0.09985865 0.14287426 0.035927285 0.026074063 -0.068046466 0.03594901 0.10842058
-0.028698329 -0.11124362 -0.011927322 0.087624855 -0.017880209 -0.2174315 -0.071983784 0.041474953
0.047056876 -0.08432179 -0.086241126 -0.082027085 0.06372967 0.106654756 -0.08459149 -0.14165786
-0.043775667 -0.040170323 0.07077493 -0.045004036 0.009929589 -0.06831223 -0.08653863 0.07468011
-0.043049343 -0.1401479 0.009975082 -0.018872002 0.013995887 -0.08257182 -0.073172584 0.077027135
-0.025978854 0.07534176 -0.14117725 -0.08904067 0.044860583 0.06638887 -0.01421855 -0.08526613
0.05779166 -0.0051377546 0.05158592 0.046335965 -0.059937607 0.041430525 -0.03459975 -0.059171338

c3.bias f4 [16]
00000000: 4e2a 2ebd 8787 373d a849 db3c ab25 0a3d
00000010: bd28 473d ff99 d93c ea5f 483d 1e79 67bc
00000020: 043d 12bb f656 01bd 2d88 6d3d a56f 3d3d
00000030: ee25 29bd 029a 233d d362 333d f956 713d
-0.042520814 0.044806983 0.02676852 0.03372733 0.048622835 0.026562689 0.048919596 -0.014127998
-0.00223142 -0.031577073 0.057991195 0.04624905 -0.04129594 0.039941795 0.043795418 0.058920834

c5.weight f4 [120, 16, 5, 5]
00000000: 02db 34bc 08df 16bd e1f0 90bc dddf 943c
00000010: 4687 b5bc 0309 babb 4a95 303d 20d4 b93c
00000020: 6e2f f43c 5781 38bd 6977 c0bd 3d43 a53d
00000030: b433 42bd c709 773d 0844 90bc 6c8c 95bd
00000040: 180e b53d 9caf 92bc 0a07 923d 7b95 49bd
00000050: ec60 c53c 1d25 413d ef0d fe3b e5f1 463d
00000060: 32e1 13bd b3b5 243d 7583 233d e720 d1bb
00000070: d124 21bd 62d0 89bc 0898 84bc 4e08 fc3c
00000080: 1f9e cebc 9350 973c 5df9 703c a295 54bd
00000090: 5dff e73c 3ddd 39bb 7bc1 9ebc 8a08 1cbd
000000a0: 9a62 abbb 483b bc3c be38 f3bc a4b9 07bd
000000b0: ab64 083d 3a88 afbb b569 f7bc f187 36bc
000000c0: ba24 19bd b2fd 613d 0d5e 983c 61c5 113d
000000d0: 7a64 d0bc 0db5 0a3d d432 0f3d abde 97bc
000000e0: a8b0 7a3c 3ec5 67bc c985 0fbd 3382 debc
000000f0: 5078 03bd c087 353d 5bf0 adbc 9da0 4fbc
00000100: 5562 3abd 1465 98bd 2318 f33c c2c4 b6bc
00000110: fd82 973d 22d8 0e3d a2a5 c73c 1245 9c3c
00000120: fabc 40bd 090a 053d a02d 4b3d ad62 3fbd
00000130: d1fb 3ebc a751 513c 7d53 083c a094 65bc
00000140: 1281 0c3c 45c2 7fbd 7143 acba 4b94 2f3d
00000150: 4c87 54bd b6c0 ca3c 0313 4c3c 0fcd 913d
00000160: 7317 0ebd 9721 32bd ae67 2a3d 7b6c a63c
00000170: 073a 993d 9a8a 5abc e231 85bc 177e 3abd
00000180: d012 54bb b8c6 a23c dc57 93bc e536 fc3b
00000190: 7543 32bd 8608 413d 35f2 233d c85c a9bc
000001a0: 2844 263b 107f d63c 6fe6 063d e2d6 dfbc
000001b0: 38cf 87bc 31be a73c e8de 033c 4b69 91bd
000001c0: b5d4 edbc 7b8c b23c fde3 0e3d d3c2 893c
000001d0: e560 a3bd 5875 aa3c 8915 36bb 5638 9a3c
000001e0: 2e43 913c b850 a5bc 8026 3e3c 3392 b8bc
000001f0: a826 fb3c 4983 79b9 dac8 b13c 4370 ad3c
00000200: ad14 4ebd 6d43 cdbc ffed c23b 84d6 3fbd
00000210: 8e8a 873d 38ca 38bd 9ef9 60bc dc8f 81bd
00000220: 3e6b debc 13c0 3f3d 982b ffb9 224e 2ebd
00000230: 43c3 3dbd 0497 093d 8795 6f39 fa64 b03c
00000240: 1d4d dcbc 3fa4 36bd 3b76 12bc 44cd f83c
00000250: 1fa9 fbbb 412f 363d 777b df3c 458b 323d
00000260: 6317 013d 2f18 0ebd 8694 fd3a 8b10 ebbc
00000270: af82 15bd f84b 563c 67fc e83c 9db8 073d
00000280: e5eb 753a e17f 3ebd c39b 4e3d 64b3 b4bc
00000290: ebe6 a73c c28b 71bb 70be fbb8 cc6f 953d
000002a0: 3579 8abd 388a 4abc 070e 46bc ace9 01bd
000002b0: 16b0 6d3c 6a77 02bd b456 a3bc b04b 113d
000002c0: 629c 0e3d 1755 7c3c a5d6 123d a667 37bd
000002d0: 186e 213d 23b1 4bbd cb25 313d 412a 27bd
000002e0: d8a2 1dbd 8db9 1c3d e086 09bc c1ed 023b
000002f0: 79b7 013b abd5 a4bc 454e 603d 0cc2 d2bc
00000300: 5669 0b3d faae 033c 08ab a13c 5432 25bd
00000310: ce9a 6cbd d577 36bd 03a0 d03c 9abc 4ebd
00000320: a7b2 1abd 4afd 843c 474c a2bc 2fa9 bfbc
00000330: eeec b33b 871b 7e3d bfd0 25bd 7cb0 23bd
00000340: 88f3 88bc fd27 bbbb 66dc bb3d 658b 33bc
00000350: f812 353d c86f 88bd a347 083d 3c5a bb3d
00000360: 244f 83bd 2124 b53d 1215 10bd a23d 2d3d
00000370: e643 fa3c 89b0 89bd bcb5 473d f5c8 40bd
00000380: e5ba 34bd 35f6 333d fa13 bdbc dddf 283d
00000390: db9a e13c 4a14 febb 5ed3 24bc e241 2abd
000003a0: 1dd2 d43b cd42 6b3d 8409 aabc 1be0 483d
000003b0: eafe acbd f735 913d 9959 2a3c 69bf 173d
000003c0: 129f 043d 04c9 6abd 97ab 793d 29e2 3dbd
000003d0: dab1 6c3d a45f 153d b86d 04bc 0bbc 313d
000003e0: c9f0 bf3c 7d38 bf3c c718 ceb8 4e0e 603c
000003f0: 9dc1 9dbc 8bda 5cbc 57f3 17bd fc57 17bd
-0.011038544 -0.036833793 -0.017692985 0.018173153 -0.02215923 -0.005677344 0.043111123 0.022684157
0.029807772 -0.045045223 -0.09397776 0.08069465 -0.04741259 0.06031206 -0.017610565 -0.07302174
0.08840579 -0.017906003 0.07130249 -0.04921482 0.024094068 0.047154535 0.007753126 0.048570532
-0.036103435 0.040212344 0.03992029 -0.006382096 -0.03934175 -0.016822997 -0.016185775 0.030765679
-0.025221882 0.018471038 0.01470789 -0.051900513 0.028320009 -0.0028360628 -0.019379368 -0.03809408
-0.00523026 0.022977486 -0.029690143 -0.033136025 0.03329913 -0.0053568156 -0.030201772 -0.011140809
-0.03738854 0.055173583 0.018599534 0.035588626 -0.025438536 0.03386407 0.034960583 -0.018538794
0.015300907 -0.014146147 -0.035039697 -0.027161693 -0.03209716 0.044318914 -0.021232774 -0.0126725705
-0.045503933 -0.07441154 0.029674595 -0.022310618 0.07398031 0.03487409 0.024370972 0.019075904
-0.047055222 0.032480273 0.04960406 -0.046724964 -0.011656717 0.012775815 0.008320686 -0.014012486
0.008575695 -0.06244113 -0.0013142658 0.042866033 -0.05188684 0.024750095 0.012455705 0.0711919
-0.03469033 -0.043489065 0.041602783 0.0203154 0.07481771 -0.013338709 -0.016259138 -0.045530405
-0.0032359846 0.019870147 -0.01798623 0.0076969736 -0.043521363 0.04712727 0.04002591 -0.020674124
0.0025370214 0.026183635 0.032934602 -0.027324144 -0.016578302 0.020476433 0.00804875 -0.07100161
-0.02903209 0.021795502 0.034885395 0.016816532 -0.079774655 0.020807907 -0.0027783832 0.018825691
0.01773223 -0.020180091 0.011605859 -0.02253065 0.030658081 -0.00023795398 0.021702219 0.021171695
-0.050312687 -0.025056565 0.0059487815 -0.046835437 0.06618224 -0.045114726 -0.013731388 -0.06326267
-0.027150746 0.046814036 -0.0004866987 -0.042554982 -0.046328794 0.033591285 0.0002284852 0.021532524
-0.02689224 -0.04459023 -0.008939321 0.030371316 -0.007680073 0.04447866 0.027280552 0.04358985
0.031516444 -0.034691032 0.0019346632 -0.028694412 -0.036501583 0.013079636 0.028440667 0.033135045
0.00093811593 -0.046508674 0.050441515 -0.022058196 0.020495852 -0.0036856984 -0.000120040844 0.07296714
-0.067614 -0.0123620555 -0.012088305 -0.031716987 0.014507314 -0.031852163 -0.019938804 0.03547257
0.034817107 0.015401146 0.035849232 -0.04477658 0.039411634 -0.049729478 0.043248933 -0.04081178
-0.038485378 0.038262893 -0.008393973 0.0019978138 0.0019793196 -0.020121416 0.054762144 -0.025727294
0.034036003 0.008037323 0.019734874 -0.0403312 -0.05776482 -0.044547874 0.025466925 -0.050472833
-0.037768032 0.016234059 -0.019811762 -0.023396103 0.0054908907 0.06203797 -0.04048228 -0.03996323
-0.016717687 -0.005711554 0.09172897 -0.010958527 0.044207543 -0.066619456 0.033271443 0.0914807
-0.06411579 0.08844782 -0.035176344 0.042295106 0.030549955 -0.067231245 0.0487573 -0.047066648
-0.04412355 0.043935973 -0.023080815 0.041229118 0.027539661 -0.0077538835 -0.0100601595 -0.041566737
0.006494774 0.057436753 -0.02075649 0.04904185 -0.084470585 0.07090371 0.010397338 0.037047777
0.032378264 -0.05732061 0.060954656 -0.04635826 0.0577868 0.036468163 -0.0080828 0.043392222
0.023430245 0.023342365 -9.8274606e-05 0.0136752855 -0.019257361 -0.013479839 -0.0370973 -0.036949143

c5.bias f4 [120]
00000000: bbe3 3abd d248 5d3d b492 4a3d d1ff 0b3c
00000010: 88d1 87bd bcbe 03bd 499f 4abc 790c 133d
00000020: 8418 84bd 85fd 6a3b 2b54 e9ba f456 a93c
00000030: d8d8 d63a 4134 153c 0ae6 13bb bac8 223c
00000040: 986d 3a3d 8448 bd3a ce47 bc3c 0d74 3b3d
00000050: e5d8 49bd 1ec3 f33c 3ac7 2fbd 046e 2fbd
00000060: 8b8e df3c 235b f23c 8d18 773d 2da0 5bbc
00000070: 3eed febc a37e 4cbd 90bd 033d 1121 70bc
00000080: 15d1 aebc 183d df3c dd81 efbc a1e8 8fbc
00000090: 0208 4ebd fef5 51bd 9948 23bb 1e6c 92bb
000000a0: 1d6e 043d 241f 803c ec51 4bbc f40b 16bd
000000b0: f639 533d 606f b73c 4cab 573d c407 1b3d
000000c0: 21d2 943c fe36 093b f9c9 e0bc afda d9bc
000000d0: 74fd d23c 07fe 8abc 2dac 713b 67b1 86bd
000000e0: a7e3 803c 2465 6cbb 6ce0 593d f578 b83c
000000f0: 848a 09bd 6080 5abd f31a 15bd fa93 3a3d
00000100: e7cd 26bd 2f2a 223c 288e 5bbc f5ab 0e3d
00000110: 2132 053c 6a93 6a3d 78eb 87bc 9d04 a73c
00000120: b529 163d bfe5 a83c 3ea3 de3c f97f 2d3c
00000130: c008 7fbd 070c 413d bc27 853c fb1b b2bc
00000140: a18f 04bd c175 9f3c 3db5 da3c b0ad 8fbc
00000150: c67a 04bb ca96 54bd 0601 58bd 041d 1cbd
00000160: f635 92bc b4c1 d13b fbfc 27bd c1e2 4cbd
00000170: b073 233d a5d2 153d 48d7 193d 5219 173b
00000180: 8b18 583d 00c4 2ebd 6052 dabb 080d fb3c
00000190: 960f 4dbd 1b67 dcbb e103 46bd d96e 41bc
000001a0: a2ff 2abd 6639 733c faba 433c 1d52 283d
000001b0: 9fa1 19bb e94b 0cbd 9b76 61bd 8f49 55bd
000001c0: 05ac b03c 736c 133d 3c69 fb3c 6d0a 193c
000001d0: b5c2 d3bc 88ad f4bc 38bc a3bc 8a15 3abd
-0.045627337 0.054024525 0.049456313 0.008544878 -0.06631762 -0.03216432 -0.012367078 0.035900567
-0.064499885 0.0035856676 -0.0017801573 0.020671345 0.0016391529 0.009106697 -0.0022567534 0.009935552
0.045514673 0.0014441167 0.022983458 0.04576497 -0.049279112 0.029756125 -0.042914607 -0.04282953
0.02728965 0.029584473 0.060326148 -0.013404888 -0.031118985 -0.049925458 0.032163203 -0.014656321
-0.021339932 0.027250811 -0.029236728 -0.01756698 -0.050300606 -0.051259987 -0.0024915098 -0.004468455
0.032331575 0.015639849 -0.012409668 -0.036632493 0.051568948 0.022391975 0.052653596 0.037849203
0.018166604 0.002093732 -0.027440058 -0.026593534 0.025755621 -0.016966833 0.0036876306 -0.065768056
0.015733553 -0.0036071027 0.05319254 0.022518614 -0.033579364 -0.053345084 -0.036402654 0.045551278
-0.040723708 0.009897753 -0.013400592 0.03483196 0.008129627 0.05726949 -0.016591772 0.020387942
0.03666087 0.020617364 0.02717745 0.010589593 -0.062264204 0.04713061 0.016254298 -0.021741858
-0.032363538 0.01946533 0.02669775 -0.017538875 -0.002021478 -0.051901616 -0.05273535 -0.03811361
-0.017847996 0.006401265 -0.041012745 -0.050020937 0.03990525 0.03657784 0.037558824 0.0023055864
0.05275778 -0.04266739 -0.006662652 0.030645862 -0.050063692 -0.0067261583 -0.048343543 -0.011806213
-0.041747697 0.014845228 0.011946434 0.041093934 -0.002344228 -0.03425208 -0.05504475 -0.052072104
0.0215664 0.035992097 0.030689828 0.009340865 -0.02584968 -0.029867902 -0.01998721 -0.045430698

f6.weight f4 [84, 120]
00000000: 05ef eb3c cd11 18bd 15a4 4b3e ad84 38bd
00000010: 5916 a6bd d210 0fbe 799f 70bd 1108 0bbd
00000020: c79e 6cbe 27b6 953d 3b93 52bd 4a96 ee3c
00000030: 2700 b43d 5c32 f1bd 420c ac3c 54d8 0e3e
00000040: b8df eebd c936 e73d 2282 d5bc f800 0b3e
00000050: d481 c8bd 3fc9 283d a6b7 26bd fb85 0f3d
00000060: 1b17 19be dcd9 02be cacf 77bd c22a 66bd
00000070: efc9 553d b348 1f3d d79f 27bc e50e 403e
00000080: 7ec1 873a 6433 1ebe be12 4e3c 1533 02be
00000090: 5c3b 47be c452 0dbe a5f4 fb3d 7dc5 c0bd
000000a0: 91a3 afbd a17d 81bd b637 debc 4650 cfbd
000000b0: 849b c8bc 7ec3 0e3e 0dc5 3e3e 3707 c93d
000000c0: 6a9d 2dbe cd1f f1bc dd47 d13d 0cae c33d
000000d0: ca7d 1e3e 24ce d1bd 62d1 54bd 6e82 a1bd
000000e0: 7a09 ba3c fcc6 9ebd fab9 023d 6e33 50bc
000000f0: 0085 423e 0193 0bbd c5ef b73d c7f4 583e
00000100: 547c dcbd 35fd f33d 8318 683c 61e7 673d
00000110: 65bd 85bd a5d5 323e a8bd 333e 2690 dbbb
00000120: 3382 97bd 3a3d fe3c 3589 a0bd f9cf 58bd
00000130: 8d37 e8bd f5ed b63d bc02 043d 4b67 1abe
00000140: fc34 cfbb df5c 793b 6bd5 8bbd 2d6b 383e
00000150: 2e8a 17bc c88b a2bd 9fe5 523c 26b7 8cba
00000160: 32e5 b8bc 44e1 79bd 60b9 d3bd cfb8 e1bd
00000170: fc75 ccbc ded9 a43d 6280 b0bb 31f2 c4ba
00000180: e19d a63d 56b7 3abe ac35 3fbc a904 ddbd
00000190: a89a 2c3e c3a4 983c aa74 8d3d bc0c 703e
000001a0: 1919 0e3e de75 20bd bb8b c03d fa88 353c
000001b0: 936e a93d 5284 4a3d 0f3a 1dbe c2d0 edbb
000001c0: 01fd 943b 946c ae3d cba8 00bd 1fc4 47bd
000001d0: 48ae 073e c24d 1abd a144 43bd 71cf 12bd
000001e0: 99b1 043e 08f7 0e3d 8a07 abbd ab79 573d
000001f0: 624c e53d 4a6a 993d c569 a33d 3f45 dabd
00000200: d3cc 223e 86a7 95bd 295c 8c3d 9a35 81bd
00000210: 9719 86bd 5679 fc3c 239b 3cbd 4ec3 b1bd
00000220: b8a0 fd3a 55b3 ecbc 80a7 143d 23a9 ffbd
00000230: d1de 4c3d 31f2 8b3d 58ca 9dbd 0a9e 89bd
00000240: 5574 8fbd fd87 dc3c 9a53 013e cc3b f53a
00000250: bb2c 45bd 46b2 b93b 2e8a 9ebd a4b7 fabd
00000260: 860f eb3c df63 a3bd 43c9 733a 0a4b 3f3e
00000270: 85d8 9c3d f0ff a73d e7d2 babd 5767 443d
00000280: 8dc5 e73d e962 653d eed7 82bc 4faf 883d
00000290: 26fa a5bd 9874 353d 6739 6dbd 93be f83d
000002a0: 576b b33d 3677 8dbd 9ea6 8d3b ef08 d03d
000002b0: 76fd fabd bf5a b93d bf51 d7bc c3ad 55bd
000002c0: e426 4fbc b10e 0b3e 3444 fc3a eb47 b4b9
000002d0: 2442 b6bd 8052 83bc f457 10be bbf7 df3c
000002e0: 0e8a e83c 989d 7dbd afad d7bd b2a2 fcbc
000002f0: 4dbd b63d f858 bf3c 6cd9 f7bd 0a89 81bc
00000300: d4e5 afbd 86d8 bf3d 3619 cfbd 0c58 f03c
00000310: 1a8d 733c c5ff c8bd 49ae 07bd 4c10 813d
00000320: c1e7 993d 7185 6bbc f87f 12bd f3db 80bd
00000330: 82fe 6a3d 0dbe 043c bf8e cbbc ea94 57bd
00000340: 3128 253d 250f f83c 886a 9c3d 2bfc 943d
00000350: 35f8 c0bd 4a1e 85bd e057 acbd f06f f9bc
00000360: 9832 70bd 9ea8 093d f06d 143c d2b0 e33c
00000370: 896c 8bbd 84e1 acbd 98af 0fbc dd98 d9bd
00000380: 5fb7 5dbd 692a af3d ccd4 1bbd 5d57 09be
00000390: e555 88bd 3fe5 88bc c145 803d 37bf 873d
000003a0: 72db aa3d c3b6 b83c 548f 013e da65 253e
000003b0: 1e03 833c b3cc 16be 296b 63bd 6589 c2bd
000003c0: 5733 a63d f4f1 15bd 85eb 0e3c 4627 48bd
000003d0: 99bf 88bb 4445 a0bc 11b5 a73d a1c2 97bb
000003e0: e3cd 7b3c 9415 da3d e56c 7bbd 6e48 92bd
000003f0: 10c6 ca3d 80ef 8bbd c1cc a03c 7242 8dbd
0.028800497 -0.03712635 0.19886811 -0.045048404 -0.08109731 -0.1397126 -0.058745835 -0.03394324
-0.23107444 0.073101334 -0.05140994 0.029124398 0.087890916 -0.117771834 0.021001939 0.1394971
-0.11663765 0.11289746 -0.026063029 0.13574588 -0.09790388 0.04120755 -0.040702485 0.035039883
-0.1495022 -0.1277842 -0.060500897 -0.05619312 0.052194532 0.03888769 -0.01023098 0.18755682
0.0010357348 -0.15449291 0.012577711 -0.12714799 -0.19456238 -0.13801104 0.123025216 -0.09412668
-0.0857612 -0.0632279 -0.027126174 -0.10122733 -0.024488218 0.13941762 0.18629856 0.09815829
-0.1695458 -0.02943411 0.10218785 0.09554681 0.15477672 -0.10244396 -0.051957496 -0.078862056
0.022709597 -0.07752797 0.031915642 -0.012707574 0.18996048 -0.03407574 0.08981279 0.21187125
-0.10765901 0.1191353 0.014166 0.056617144 -0.06530265 0.17464311 0.17552817 -0.0067005334
-0.073978804 0.031035054 -0.0783867 -0.052932713 -0.113387205 0.089321055 0.03222917 -0.15078466
-0.006323455 0.003804974 -0.068278156 0.18009634 -0.009249253 -0.079368174 0.012872129 -0.0010735735
-0.022570226 -0.061005846 -0.10338092 -0.110215776 -0.024958603 0.08049367 -0.005386398 -0.0015025792
0.08135582 -0.18234 -0.011670511 -0.107919045 0.16855872 0.018633252 0.069070175 0.23442358
0.13876761 -0.039174907 0.094016515 0.011080021 0.082730435 0.049442597 -0.15354179 -0.007257552
0.004546762 0.085168034 -0.031410974 -0.04877102 0.13250077 -0.037671812 -0.04767287 -0.035842363
0.12958373 0.034903556 -0.08351047 0.052606266 0.111962095 0.07490976 0.07979158 -0.10657739
0.15898447 -0.07307343 0.06853516 -0.06309052 -0.065478496 0.030819576 -0.046046387 -0.086798295
0.0019350266 -0.028894106 0.036292553 -0.12483432 0.05001718 0.06833304 -0.0770461 -0.06719597
-0.070046104 0.026920313 0.12629548 0.0018709837 -0.04813836 0.005667004 -0.077411994 -0.12242058
0.028693926 -0.07978033 0.00092997047 0.18680969 0.07658485 0.08203113 -0.09122258 0.047950115
0.11316977 0.05600253 -0.015972104 0.066740625 -0.08104353 0.044300646 -0.05791607 0.12145724
0.08760708 -0.06907503 0.004322841 0.10157954 -0.12255375 0.090505116 -0.026284097 -0.052167665
-0.01264355 0.13579823 0.00192464 -0.00034385858 -0.08899334 -0.01603055 -0.14096051 0.027339807
0.028386142 -0.06191787 -0.105311744 -0.030839298 0.08922825 0.023357853 -0.12102017 -0.015812416
-0.08588758 0.093674704 -0.101122305 0.029338859 0.014865184 -0.09814409 -0.033125196 0.063019365
0.07514907 -0.014375077 -0.03576657 -0.06291952 0.057371624 0.008101952 -0.02484834 -0.05263225
0.040321533 0.030280659 0.07637507 0.0727466 -0.09422342 -0.06499918 -0.08415198 -0.030448884
-0.058642 0.03360807 0.009059414 0.027794275 -0.06807811 -0.08441451 -0.008769892 -0.106248595
-0.054129954 0.08553011 -0.038044736 -0.13412233 -0.06657008 -0.016710876 0.062633045 0.06628268
0.08342637 0.022548085 0.12652332 0.16152135 0.015992697 -0.14726524 -0.055522118 -0.09498862
0.08115261 -0.036607698 0.008723144 -0.04886558 -0.004173231 -0.019564278 0.081888326 -0.004631356
0.015368911 0.10648647 -0.061383147 -0.07142721 0.09901059 -0.068327904 0.019628884 -0.06897439

f6.bias f4 [84]
00000000: dd24 fc3d 76b1 293c c138 b2bd 0ff7 21bc
00000010: f718 273d 1db8 cb3c af13 4a3d 1243 643d
00000020: 91d8 71bd 23dc 69bd e7f5 4dbd b7ba 54bd
00000030: f847 29bd e94c adbc 0909 71bd 7578 0b3d
00000040: 9b2b adbc b2e3 733d 863c 1e3d dc12 4a3d
00000050: 8e54 933d 4ffd 18bb 1b3c d4bd 5380 8a3d
00000060: 76a3 6f3c 8b76 9e3d 8b6a 273d ab13 bb3c
00000070: f473 25bd 525e 373d 32cf e4bd d073 dfbc
00000080: 3964 b13d 733a 163d edb5 ffbc f923 9ebd
00000090: f164 33bd 3e84 58bd 9ec7 a4bd 2650 27bd
000000a0: 0112 013d b344 99bc 1183 a3bc 5379 fabc
000000b0: b4dc f53c b94e ce3d 86c8 efbc 3af2 563d
000000c0: f006 023d 6f4e e63b fda4 adbd 4ff0 7ebd
000000d0: 3e46 313d 85fd bbbc 6757 79bd c5df 9fbd
000000e0: 8cdc e2bc 938a 93bc 2954 8e3d d23b 7c3d
000000f0: 3bc1 bcbc 3831 9b3d 1ec9 b4bc ac7a 9cbb
00000100: 05a0 90bd 7f52 a4bd d3b7 50bd 1eff d7bd
00000110: 4a74 bb3d 9948 883d f3fe 36bd fea0 57bd
00000120: 9079 a5bd b8d7 12bd e900 50bc dbeb f4bc
00000130: 9aee 9fbd de23 89bc e237 ccbb 40f7 9f3d
00000140: 7b73 ab3d 8670 9ebd d670 a23d 2096 a63d
0.123117186 0.010357251 -0.08702231 -0.0098855635 0.040795293 0.024868065 0.049335178 0.055728026
-0.059044424 -0.057094704 -0.05028334 -0.051935878 -0.0413284 -0.021154838 -0.058846507 0.034050424
-0.021138957 0.05954332 0.03863194 0.049334392 0.07193862 -0.0023344343 -0.10363027 0.06762757
0.0146263745 0.07737454 0.04087309 0.022836527 -0.040393785 0.044767685 -0.11172332 -0.027276903
0.08661694 0.036676835 -0.031214679 -0.07721705 -0.043797437 -0.05286049 -0.080458865 -0.04084792
0.03151131 -0.018709516 -0.019959958 -0.03057543 0.030012466 0.10073609 -0.029270422 0.0524771
0.031744897 0.007028393 -0.08478735 -0.062240895 0.04327988 -0.022948036 -0.06087437 -0.078063525
-0.027693056 -0.018010413 0.06949646 0.061580487 -0.023041358 0.07577747 -0.022068556 -0.004775366
-0.07061771 -0.080235474 -0.05095656 -0.105467066 0.0915304 0.06654472 -0.044676732 -0.05264377
-0.08079827 -0.035850257 -0.0126955295 -0.02989762 -0.078091815 -0.016740736 -0.0062322477 0.07810831
0.083716355 -0.07736306 0.07931678 0.08134103

output.weight f4 [10, 84]
00000000: 95fc 11bf db39 003e b93d 6b3e 16d4 9cbc
00000010: 4437 98bd 1e7b 843e 6b68 ac3c b73d 40bc
00000020: 09be abbd a97d d43e 829b 6ebe a9ab 63be
00000030: 726e d6bd 13f2 b7be a5fa c93e ebc2 9ebd
00000040: 86be ab3e 4581 8bbc 468d d2b9 8d98 89be
00000050: 6e03 c9bd 751c c2be b5d5 143e 9854 8c3e
00000060: 17ac 423a bd4f 07bf 2b4c 903d d929 03be
00000070: 5e0a c3bd f0ae 0fbf 43aa 823e 2550 b63d
00000080: 7c3d 40bd aafc fe3d 0a6e c73e 2040 c93e
00000090: 64fc 1b3d f839 4f3e 7fdb 62bc 53b1 bbbb
000000a0: 02dd 9c3e e798 c9be 8eb0 b43e 8426 1cbe
000000b0: 6059 0bbe f5e4 e83d 0dad 023f 98b7 08be
000000c0: adb5 3d3c c029 56be 4936 00be be9f 2cbe
000000d0: 634b 023e 25e9 a03e ab21 4a3c 7356 1a3e
000000e0: 6592 9cbe 4a9c 0cbe 907f bebd 1352 8b3d
000000f0: 37d6 073f 2e46 1abd 16a2 9abd 136d b23e
00000100: ae7b e33d 553a 573e 79bf fdbe 3c6b c03e
00000110: e6c8 07be c8b0 9f3e e457 b73d ddee ee3d
00000120: 26ee c9be f887 86be eb7d 913e c7af 22be
00000130: 00e9 353e 1497 ea3e 6db8 27be a006 14be
00000140: bd71 d3be 32c6 593d f491 aa3e 0856 45be
00000150: e770 2c3d 0d38 0bbe 5b45 0b3d b03d 783d
00000160: ea75 253e 5f0a bcbd d30e d1be 0443 82bd
00000170: b919 e4bc 990b 24bf 4fc7 1e3e 4e3d 9d3e
00000180: becd 273d 3c14 ea3e 8716 81be 5173 64be
00000190: d5eb 19be abdb bf3e 02a7 ebbd abad 123e
000001a0: 9bb5 733d 4f69 b8be 08f6 90bd 5ccd b8bc
000001b0: e531 83bd 11a7 a13e 452e e43d 9215 f23d
000001c0: faf8 113e 1279 1f3f e67a 8b3e db32 8f3e
000001d0: c308 9d3d c109 57be afcf 7b3e dedb e8be
000001e0: 0cd4 513c f108 8f3e e47f e83d 248e 1fbe
000001f0: 1ee8 05bf 2592 473e 98bb 22be 8372 98bd
00000200: 0ac3 833e a396 b0be c3d7 c1be 6d30 903d
00000210: f4cd 783e 65d4 c53a ffa8 323e 0242 233e
00000220: f22b 363e 3669 e8be 3b53 683d 1fb6 963d
00000230: 3b53 a53e 832e d63e 60c0 5bbd d430 d9be
00000240: e849 82be 80fb 493e 3a06 3d3e ecd3 443d
00000250: 0d62 ffbd 9c48 87be f0bc be3e 0ffb ec3d
00000260: b8ae 173e 9299 44bf 560b 6cbe 99be 763d
00000270: fc2d 033f ac2b 49bd ec1a babe 75d4 133e
00000280: 547d 133e 110e 46be db14 f43d aa40 dcbd
00000290: f55d d43e 49f7 c6bd 8892 a1be 5569 7b3d
000002a0: 3f0b 25bb 809e 34be 2e2e 2fbd c4ec 44be
000002b0: 003b 603c 5a19 b6be 348d 9e3c 410a c2be
000002c0: af31 153e 54dc 7a3e ef33 8a3e bc32 41be
000002d0: aab0 90bd 352c 62bd 5ac0 79bd ce43 80be
000002e0: 2178 283e 27fb ec3d ae0e 5f3e 38ed 7bbe
000002f0: 7868 0f3e 0c40 fe3c 8261 073e 6829 143c
00000300: 1f07 30be 53e7 d83d 13a1 c43e 870f 85be
00000310: 435e 73be 6922 0dbe 5531 b1be cfea 2cbe
00000320: 1c2c ec3e 5f32 83be 9295 ddbe cec4 9f3e
00000330: 40b9 373d 5155 963e 0d82 ac3e 61cb 6b3d
00000340: c520 4c3e d197 c1bd 084a e3bc ee1c 90bc
00000350: 61e8 90be eb20 043e d4c9 563e 93e6 3b3e
00000360: f994 153e 7b79 b5bb f51b b1be 31dd 3abe
00000370: cc90 11bc f9ad 633e 92a2 8b3d 16a4 003e
00000380: 65c8 86be af6f 5d3e 15e7 0bbe 3511 2fbc
00000390: f8b5 03be 6932 543d 6f44 cf3e 365b 89be
000003a0: d6dc 03bd 3ea9 66be 300f 57be 38d8 523d
000003b0: 7f87 63bc 054b 213e 9b71 30bf 1683 3a3d
000003c0: ba33 643d ced9 983d 271a 3bbe 8465 de3e
000003d0: a60a d63d 951c 843e e1c1 76be 8311 3f3d
000003e0: f62c b5bd 9f59 c03c 13cd 293d 00c9 f23c
000003f0: b436 f73e ddd9 d0be f0dd 43bd 23c8 a9bc
-0.57026035 0.1252207 0.22972764 -0.0191441 -0.07432416 0.2587518 0.021045884 -0.011733464
-0.08385856 0.4150212 -0.23301509 -0.22233452 -0.104702845 -0.35926875 0.3944904 -0.077520214
0.33543795 -0.017029414 -0.00040159578 -0.268742 -0.09815107 -0.37912336 0.14534648 0.2740829
0.0007426156 -0.52856046 0.07045778 -0.12808932 -0.09523462 -0.5612631 0.25520524 0.08902005
-0.046933636 0.124505356 0.3895114 0.39306736 0.038082495 0.20236957 -0.013846277 -0.005727926
0.30637366 -0.39374468 0.3529095 -0.15249068 -0.13608313 0.11371795 0.51045305 -0.13351285
0.011578959 -0.20914364 -0.12520708 -0.16857812 0.1272407 0.31427875 0.012337129 0.1507204
-0.3058044 -0.13731495 -0.09301674 0.06802764 0.5306124 -0.037664585 -0.07550447 0.34848842
0.111075744 0.21018346 -0.49560145 0.37581813 -0.1326023 0.3118956 0.08952311 0.11666653
-0.39439505 -0.2627561 0.2841638 -0.15887366 0.17764664 0.45818388 -0.16378947 -0.14455652
-0.41297713 0.05316753 0.33314478 -0.192711 0.04209986 -0.135956 0.03400169 0.060605705
0.16158262 -0.09181666 -0.40831622 -0.063604385 -0.027844297 -0.64080197 0.15505718 0.30710834
0.040967695 0.45718563 -0.252125 -0.22309615 -0.15031369 0.3747228 -0.115064636 0.14324062
0.059499364 -0.36017844 -0.07078177 -0.02255886 -0.06406001 0.31572774 0.11141638 0.118205205
0.14255133 0.62294114 0.27242202 0.27968487 0.07667687 -0.20999815 0.24590944 -0.45480245
0.012806904 0.2793651 0.11352518 -0.15581566 -0.5230731 0.19489343 -0.15891874 -0.074437164
0.2573474 -0.34489927 -0.37859926 0.070404865 0.24297315 0.0015093206 0.1744728 0.15943149
0.17790201 -0.4539277 0.05672 0.073589556 0.32290062 0.4183236 -0.05365026 -0.42420065
-0.2544701 0.19724846 0.18459406 0.048053667 -0.124698736 -0.26422584 0.37253523 0.11571323
0.14812744 -0.7679683 -0.230512 0.06024036 0.5124204 -0.049113914 -0.36348665 0.14436515
0.14403278 -0.19341303 0.1191804 -0.10754521 0.41477934 -0.09715135 -0.31557107 0.06137975
-0.0025183705 -0.17638588 -0.04276865 -0.19230944 0.013685942 -0.35566217 0.01935444 -0.37898448
0.14569734 0.24498111 0.26992747 -0.1886701 -0.07064946 -0.05521794 -0.060974456 -0.2505173
0.16452076 0.11571341 0.21782944 -0.2460221 0.14004695 0.0310364 0.1322079 0.009043075
-0.17190216 0.105909966 0.3840414 -0.2598841 -0.23766427 -0.13782658 -0.3460795 -0.16886447
0.46127403 -0.25624368 -0.43278176 0.31204838 0.044854403 0.29361966 0.3369297 0.057567004
0.19934376 -0.09452785 -0.027745262 -0.01759192 -0.2830229 0.12903182 0.20975429 0.18349676
0.1460761 -0.0055381632 -0.34591642 -0.1824844 -0.00888462 0.22234334 0.06818117 0.12562594
-0.26324764 0.21624635 -0.1366237 -0.010685255 -0.12862384 0.051805887 0.40481898 -0.268274
-0.032193027 -0.22525498 -0.21001887 0.051475734 -0.013887285 0.15751274 -0.6892335 0.04553517
0.055713393 0.07463418 -0.18271695 0.43436825 0.1045125 0.25803056 -0.24097396 0.04664756
-0.08846466 0.023480235 0.04145534 0.02963686 0.48283923 -0.40791216 -0.047819078 -0.020725315

output.bias f4 [10]
00000000: 558b 8dbe 600e 5abe f805 9d3d 513a d7ba
00000010: 19c9 f53c 18fd 063e caf2 6cbd 43fa 7938
00000020: 88ed 7d3c 71ad a13d
-0.27645364 -0.21294546 0.07667154 -0.0016420578 0.030003117 0.13182485 -0.05784873 5.95993e-05
0.015498526 0.078944094
